checkpoint_critic.pth (torch, 304983 bytes, 5 tensors)

fc1.weight f4 [256, 33]
0.00060964614 0.04573643 -0.0362698 -0.7163591 -0.24830298 -0.067915484 0.3570788 -0.15838799
0.2917441 -0.059283875 -0.063225225 -0.0138229905 0.024917241 -0.084146924 -0.021690814 0.034167595
0.30284476 -0.13519241 0.44672096 -0.7223583 0.019336002 -0.055496335 0.024029132 0.04944869
-0.024929674 0.051999588 0.10622555 0.14553604 0.08539634 -0.057526596 -0.06474263 -0.034162544
1.2241147 -0.24599239 0.029806217 -0.23499016 -0.18899943 0.46444693 -0.87302864 0.23160243
-0.08948613 0.24169807 0.042625427 -0.11902188 0.05651253 0.030229297 0.2597247 0.049793374
0.27455053 -0.23123394 -0.1982159 0.31712842 0.040559858 -0.013530877 -0.07683323 0.18161869
0.034539714 0.04593567 0.15503739 -0.124806255 0.14089885 -0.003944138 0.030787513 -0.19283949
0.050725006 -0.3012504 0.07008402 0.0893903 0.3457297 -0.1709365 0.25138935 0.6321841
0.36169887 0.122471735 -0.05684021 0.10563726 0.043647543 0.0035558045 0.14305216 0.121148445
0.1284327 -0.15331668 -0.15696052 -0.08138991 0.21368043 0.68457633 -0.03596658 -0.08711171
-0.06384549 -0.12311927 0.06624025 0.07532882 -0.1449503 0.09850171 0.0034353747 -0.013019361
-0.05878286 0.04734835 -0.270166 -0.21738988 0.3070137 0.07633528 0.4241736 -0.35056412
0.21030709 0.04911622 0.057171695 -0.10126106 0.15866676 -0.092788294 0.03651577 -0.004158039
-0.24434847 0.2195713 -0.011603897 0.15255797 -0.33445162 -0.13893194 -0.5664055 0.10615285
0.13182577 0.00057748385 -0.15421367 0.065989465 -0.06700969 0.095364 0.35120058 0.020190405
0.022672929 -0.37031505 -0.047745295 0.27284592 0.02738593 -0.004115674 0.007327219 0.18687385
0.41540173 -0.14784838 -0.03872633 -0.21336931 0.03482574 0.4032233 0.019440101 0.009941624
-0.057827692 0.053223357 0.07084003 0.0714468 -0.41183493 -0.12437765 0.6737414 0.6287122
0.01706958 -0.046803538 -0.09857347 0.14014407 0.08217431 -0.030490134 0.06966279 0.1173419
-0.12914681 0.03140612 -0.16604273 -0.058538437 0.40740606 -0.03236153 0.28499207 -0.103140086
-0.2273651 0.57932055 0.44068715 0.58286095 -0.18257765 0.47547662 -0.28723836 0.03532487
0.026866514 -0.10642807 0.0625019 -0.33663988 -0.19610456 -0.49713716 -0.062408946 -0.26182553
0.14288238 -0.017531652 0.017191036 0.08688366 0.10270242 -0.11535288 -0.021977257 -0.082823955
0.28546667 0.17445055 0.043236487 -0.32224917 0.0014758632 -0.44328868 -0.20597973 0.16030133
0.02232366 -0.13076793 0.06444947 -0.2943877 0.35937133 -0.23464692 -0.088792145 0.023012977
-0.1328087 0.16985762 0.09810458 0.33732107 -0.1560738 -0.06559824 -0.49694768 0.5746494
0.018175803 -0.06038715 0.012754285 0.13179317 -0.022718046 -0.02498046 -0.21728823 -0.14097805
-0.11179889 0.40655723 -0.009310886 -0.054062285 -0.37658265 -0.05600717 -0.14638191 -0.15195318
-0.033399466 -0.051011402 0.1494532 0.0532143 -0.3661077 0.28534722 -0.09843482 0.09065107
0.015934737 -0.03940786 0.01855227 -0.11145914 0.094110884 0.11971962 -0.14614254 0.18665528
0.5164231 -0.27071857 0.32377478 -0.0039975056 -0.050582904 0.0916406 0.05318961 -0.004524289
00000000: a9d0 1f3a 1f56 3b3d a48f 14bd 4f63 37bf
00000010: 2343 7ebe 4617 8bbd 08d3 b63e 7630 22be
00000020: 7c5f 953e a6d3 72bd 3a7c 81bd d379 62bc
00000030: 3e1f cc3c 3955 acbd efb0 b1bc 52f3 0b3d
00000040: 780e 9b3e e16f 0abe 9cb8 e43e 79ec 38bf
00000050: 8966 9e3c 2050 63bd bed8 c43c b68a 4a3d
00000060: 5139 ccbc 85fd 543d c88c d93d 6607 153e
00000070: 47e4 ae3d 02a1 6bbd c997 84bd 06ee 0bbd
00000080: caaf 9c3f 6ee5 7bbe 2b2c f43c 43a1 70be
00000090: 1189 41be fdcb ed3e ce7e 5fbf 3029 6d3e
000000a0: 8144 b7bd b37f 773e 0098 2e3d bec1 f3bd
000000b0: af79 673d 6ea3 f73c a3fa 843e 23f4 4b3d
000000c0: e391 8c3e 97c8 6cbe 1cf9 4abe a85e a23e
000000d0: 1822 263d 9db0 5dbc be5a 9dbd 40fa 393e
000000e0: 8479 0d3d 0b27 3c3d 1fc2 1e3e 6c9a ffbd
000000f0: ca47 103e d43d 81bb 1836 fc3c b777 45be
00000100: 06c5 4f3d 7e3d 9abe 3688 8f3d 4312 b73d
00000110: 7c03 b13e fa09 2fbe 1bb6 803e d1d6 213f
00000120: 9830 b93e 76d2 fa3d 48d1 68bd 5958 d83d
00000130: c4c7 323d 8008 693b 447c 123e ad1c f83d
00000140: dd83 033e 0cff 1cbe 42ba 20be c1af a6bd
00000150: 0bcf 5a3e 6540 2f3f b151 13bd a067 b2bd
00000160: 6dc1 82bd f525 fcbd f8a8 873d ff45 9a3d
00000170: da6d 14be 44bb c93d 0624 613b 284f 55bc
00000180: 4cc6 70bd 58f0 413d 3353 8abe 749b 5ebe
00000190: e630 9d3e ac55 9c3d 482d d93e 247d b3be
000001a0: be5a 573e 172e 493d de2c 6a3d f561 cfbd
000001b0: 8a79 223e ca07 bebd 8f91 153d 2940 88bb
000001c0: 7c36 7abe 4dd7 603e 461e 3ebc 2838 1c3e
000001d0: 3e3d abbe 2d44 0ebe f3ff 10bf aa66 d93d
000001e0: 56fd 063e 4962 173a 30ea 1dbe 7c25 873d
000001f0: 603c 89bd 334e c33d 90d0 b33e 5966 a53c
00000200: 94bc b93c ef99 bdbe 9290 43bd 76b2 8b3e
00000210: 7558 e03c c7dc 86bb 2b19 f03b dc5b 3f3e
00000220: 89af d43e 9165 17be 809f 1ebd 7c7d 5abe
00000230: 6fa5 0e3d 4973 ce3e d940 9f3c 31e2 223c
00000240: bbdc 6cbd bc00 5a3d 9414 913d b352 923d
00000250: 07dc d2be b6b9 febd 517a 2c3f 48f3 203f
00000260: 81d5 8b3c 11b5 3fbd e3e0 c9bd ed81 0f3e
00000270: 014b a83d 72c6 f9bc 5dab 8e3d f350 f03d
00000280: 103f 04be b4a3 003d 1b07 2abe 00c6 6fbd
00000290: 8797 d03e 868d 04bd 7bea 913e 1c3b d3bd
000002a0: 66d2 68be 5a4e 143f bfa1 e13e 6036 153f
000002b0: a3f5 3abe ac71 f33e e810 93be d0b0 103d
000002c0: 2a17 dc3c f6f6 d9bd ff00 803d 105c acbe
000002d0: a2cf 48be c388 febe 86a0 7fbd ff0d 86be
000002e0: c24f 123e 8a9e 8fbc 37d4 8c3c 0ff0 b13d
000002f0: a555 d23d 213e ecbd a609 b4bc 9b9f a9bd
00000300: b028 923e 2aa3 323e be18 313d d8fd a4be
00000310: c071 c13a bcf6 e2be 5aec 52be 0826 243e
00000320: 1ce0 b63c 07e8 05be 15fe 833d fcb9 96be
00000330: 85ff b73e 4847 70be a8d8 b5bd b685 bc3c
00000340: 01ff 07be 28ef 2d3e 0eeb c83d 59b5 ac3e
00000350: cfd1 1fbe 5f58 86bd ed6f febe 391c 133f
00000360: 6ce5 943c 8458 77bd 59f7 503c caf4 063e
00000370: 321b babc d2a3 ccbc ce80 5ebe 8d5c 10be
00000380: d1f6 e4bd 4528 d03e b08c 18bc 6a70 5dbd
00000390: 71cf c0be c667 65bd 24e5 15be 9d99 1bbe
000003a0: e1cd 08bd 55f1 50bd 420a 193e 3df7 593d
000003b0: 7872 bbbe 0819 923e 3298 c9bd 45a7 b93d
000003c0: 9189 823c 236a 21bd eefa 973c b144 e4bd
000003d0: 35bd c03d 8f2f f53d 64a6 15be 9022 3f3e
000003e0: 4e34 043f a09b 8abe cfc5 a53e 82fd 82bb
000003f0: 0530 4fbd 11ae bb3d 59dd 593d 7d40 94bb

fc1.bias f4 [256]
-0.1937556 -0.067138955 0.10439304 -0.31696382 -0.18659976 -0.43806487 -0.5000542 -0.4365687
-0.31384647 -0.41132864 -0.059856452 -0.24691191 0.041328732 -0.4118015 -0.26127213 -0.2501349
0.037175126 -0.46004343 -0.2802441 -0.3887423 -0.2741184 -0.12047581 -0.1914525 -0.1520613
0.045086596 -0.07034508 -0.29157156 -0.23347746 0.037726186 -0.18515709 -0.12766856 -0.30117518
-0.20960379 -0.19548574 -0.25988892 -0.30136034 -0.10984514 -0.3095413 -0.16462334 -0.20827599
-0.34904107 -0.035673663 -0.2643707 -0.0034624333 -0.35708335 -0.1543539 -0.04263118 -0.18411088
-0.07924749 -0.23747733 -0.24687004 -0.12909375 -0.11413666 0.023167301 -0.10266174 -0.5035285
-0.22067732 -0.22899516 -0.122206464 -0.21046901 -0.08371239 -0.3072198 -0.25049236 -0.11959485
-0.49714068 -0.49086234 0.0024010902 -0.2217186 0.11168101 -0.09268953 -0.06303879 -0.049598366
-0.19125931 -0.11734463 -0.25994712 -0.20201132 -0.46713442 -0.3788199 -0.39295638 -0.36449173
-0.13060378 0.03677886 -0.23049167 -0.4147049 -0.085597925 -0.18970993 -0.031448904 -0.17406556
-0.33250436 -0.42538127 -0.108199045 -0.3266985 -0.25959134 -0.26827246 -0.2517559 -0.0037596908
0.3829858 -0.25236925 -0.5736107 -0.10582527 -0.27812994 -0.2782132 -0.089081004 -0.2696907
-0.16688412 -0.26684007 -0.3293205 -0.21412066 -0.28382176 -0.24291334 -0.4823146 -0.071228616
-0.028015468 -0.08185831 -0.1787036 -0.059885122 -0.40036306 -0.09699529 0.110706724 -0.10831096
-0.13672312 -0.24423158 -0.10865123 -0.17086238 -0.17969786 -0.3036885 -0.24260244 -0.2972762
-0.26214263 -0.29800653 -0.29795492 -0.010999624 -0.38025662 -0.14447442 -0.3195523 -0.22252963
0.049835477 -0.14980915 -0.25460964 -0.3071572 -0.31276453 -0.15507527 -0.13634473 0.010474653
-0.24888824 -0.13848609 -0.255967 -0.11773357 -0.008107559 -0.40785593 -0.19108377 -0.25081748
-0.19503918 -0.26747367 -0.020532997 -0.23015596 -0.3890348 -0.11011338 -0.34187895 -0.251859
-0.1959045 -0.1737261 -0.38295448 -0.2761961 -0.32108936 -0.14653407 -0.35329276 -0.19311908
-0.09802285 -0.22371224 -0.18183504 -0.25201625 0.055480946 -0.10587189 0.033267267 -0.3088415
0.045895673 -0.13679628 -0.38446656 -0.21875753 -0.28330743 -0.2209072 -0.20282345 -0.15768966
-0.31507227 -0.18440072 -0.17033139 -0.082913436 -0.231858 -0.2911774 -0.2500218 -0.5178971
-0.2086694 -0.09667882 -0.30698624 -0.17119317 -0.16951655 -0.33105338 -0.22339828 -0.42288718
-0.24807718 -0.49985263 -0.47191015 -0.39093664 -0.27255517 -0.07847381 -0.43652284 -0.1001858
-0.2072961 -0.34206754 -0.29350546 -0.3500961 -0.15709344 -0.36780474 -0.28608036 -0.06103943
-0.09092572 -0.29251924 -0.07504752 -0.31020078 -0.12678327 -0.088924244 0.018570008 -0.12156327
-0.3247468 -0.19752912 -0.24483924 -0.18091567 -0.26109833 -0.26116806 -0.5225017 -0.090476096
-0.47110546 0.15144594 -0.35689634 -0.29026654 -0.4045801 -0.17751844 -0.1903391 -0.6446996
-0.24485989 -0.10599372 -0.26010552 -0.15174225 -0.31094983 -0.10969636 -0.10632374 0.08043708
-0.45484808 -0.22896768 -0.14592062 -0.19113675 -0.12985933 -0.32259205 -0.4597621 -0.275373
00000000: de67 46be 2680 89bd 05cc d53d 1549 a2be
00000010: 0214 3fbe 0a4a e0be 8d03 00bf ef85 dfbe
00000020: 7cb0 a0be ab99 d2be 0a2c 75bd 7ad6 7cbe
00000030: 5148 293d a5d7 d2be 76c5 85be ae11 80be
00000040: f244 183d d08a ebbe 287c 8fbe 3b09 c7be
00000050: 3f59 8cbe 05bc f6bd 200c 44be f5b5 1bbe
00000060: b9ac 383d 1511 90bd de48 95be b714 6fbe
00000070: c686 1a3d d299 3dbe 8cbb 02be a233 9abe
00000080: 60a2 56be 6a2d 48be 2910 85be e74b 9abe
00000090: 7df6 e0bd 337c 9ebe 0593 28be 4d46 55be
000000a0: 83b5 b2be 8c1e 12bd 995b 87be fee9 62bb
000000b0: a1d3 b6be f30e 1ebe 089e 2ebd 9087 3cbe
000000c0: 824c a2bd 422d 73be 80cb 7cbe 2731 04be
000000d0: 7bc0 e9bd 5ac9 bd3c 5140 d2bd 3ee7 00bf
000000e0: 3cf9 61be b57d 6abe 6247 fabd 3085 57be
000000f0: 6771 abbd ea4b 9dbe 8940 80be 25ee f4bd
00000100: 3989 febe 4f52 fbbe 9c5b 1d3b 330a 63be
00000110: 03b9 e43d 02d4 bdbd 7b1a 81bd a827 4bbd
00000120: 7bd9 43be 6252 f0bd ca17 85be 0edc 4ebe
00000130: 3e2c efbe aff4 c1be 9431 c9be a99e babe
00000140: ffbc 05be 6ea5 163d 0206 6cbe 3354 d4be
00000150: f74d afbd 5243 42be 91d0 00bd 3e3e 32be
00000160: 033e aabe 93cb d9be 7697 ddbd 0745 a7be
00000170: 28e9 84be 025b 89be 26e6 80be 2565 76bb
00000180: b716 c43e 8b36 81be 27d8 12bf ebba d8bd
00000190: 0c67 8ebe f671 8ebe 1a70 b6bd e614 8abe
000001a0: ace3 2abe 439f 88be b29c a8be 7242 5bbe
000001b0: 1651 91be 46be 78be f0f1 f6be 4fe0 91bd
000001c0: b280 e5bc 54a5 a7bd 14fe 36be 1a4a 75bd
000001d0: 63fc ccbe 77a5 c6bd 35ba e23d 23d2 ddbd
000001e0: 2501 0cbe d817 7abe 8984 debd 8cf6 2ebe
000001f0: b702 38be 0f7d 9bbe c66c 78be 9634 98be
00000200: 8f37 86be 5094 98be 8c8d 98be c437 34bc
00000210: ffb0 c2be 1af1 13be 5c9c a3be cfde 63be
00000220: 4920 4c3d 9267 19be 325c 82be b543 9dbe
00000230: ac22 a0be 0dcc 1ebe f49d 0bbe e19d 2b3c
00000240: 8fdc 7ebe 4ccf 0dbe 1b0e 83be 4c1e f1bd
00000250: 91d5 04bc 7ed2 d0be 77ab 43be 266b 80be
00000260: 5ab8 47be 4ff2 88be d134 a8bc 01ae 6bbe
00000270: 922f c7be 2083 e1bd c20a afbe aaf3 80be
00000280: 309b 48be 41e5 31be 9c12 c4be 9369 8dbe
00000290: d365 a4be 070d 16be cae2 b4be 02c1 45be
000002a0: 34c0 c8bd d214 65be f732 3abe 4608 81be
000002b0: fd3f 633d 5dd3 d8bd 4243 083d 7920 9ebe
000002c0: 1afd 3b3d 5314 0cbe cdd8 c4be f901 60be
000002d0: ac0d 91be 7f35 62be f3b0 4fbe 6679 21be
000002e0: 2751 a1be 8bd3 3cbe 5a6b 2ebe 85ce a9bd
000002f0: 2f6c 6dbe 3415 95be db02 80be e894 04bf
00000300: 6ead 55be 8cff c5bd 4d2d 9dbe 434d 2fbe
00000310: bf95 2dbe d47f a9be 85c2 64be ab84 d8be
00000320: f207 7ebe afec ffbe 359e f1be d928 c8be
00000330: 5a8c 8bbe e0b6 a0bd ec7f dfbe 362e cdbd
00000340: 6e45 54be 7a23 afbe 5946 96be cc3f b3be
00000350: 1add 20be e750 bcbe 2079 92be 7b04 7abd
00000360: 4437 babd 15c5 95be 84b2 99bd a3d2 9ebe
00000370: 79d3 01be ea1d b6bd 2120 983c 2af6 f8bd
00000380: 3645 a6be 1345 4abe 23b7 7abe f541 39be
00000390: aeae 85be d2b7 85be acc2 05bf 884b b9bd
000003a0: bc34 f1be a514 1b3e 1ebb b6be d19d 94be
000003b0: 1f25 cfbe 65c7 35be 41e8 42be 080b 25bf
000003c0: 8dbc 7abe 3c13 d9bd 8d2c 85be 5262 1bbe
000003d0: d134 9fbe 7ca8 e0bd 43c0 d9bd 32bc a43d
000003e0: d9e1 e8be 8176 6abe 376c 15be 5ab9 43be
000003f0: d8f9 04be c92a a5be f065 ebbe b1fd 8cbe

fc2.weight f4 [256, 260]
-0.2717285 0.23498835 0.033040456 -0.28664356 -0.7753002 -0.41672218 -0.3060227 -0.24637955
-0.24270104 0.004210203 -0.27292407 -0.07540838 0.09500242 0.06926517 0.02486686 -0.05657737
-0.10310997 -0.2526099 -0.044345208 0.0059398874 -0.10714891 -0.10631011 -0.10492696 0.28470445
0.2648367 0.0011446822 -0.23746896 0.07806385 0.09071723 -0.10228484 0.027924497 -0.5778739
0.019457582 -0.50398195 0.044548567 0.009192225 -0.016235858 -0.2643438 -0.15288375 -0.23882276
-0.11942809 -0.5352431 -0.085451 -0.52374476 -0.235155 -0.19833715 -0.28371972 0.080926925
0.029035285 -0.4207548 -0.17357552 0.08465433 -0.13964757 -0.14616017 -0.29733086 -0.24493349
-0.19982418 -0.4134145 0.2002113 -0.099035606 -0.32499552 0.09174083 -0.2994372 -0.2903276
0.005370785 -0.027074924 -0.0688736 0.10947407 -0.058108088 -0.028748969 0.043859236 0.10021881
-0.23476104 0.09675687 -0.21106285 -0.03873524 -0.25914547 0.059758723 -0.055160627 0.06580675
0.014212967 -0.22922629 0.018072532 -0.23280305 0.057766538 0.38307598 -0.14415689 0.11804525
-0.26410544 -0.3990895 0.0506708 0.3602485 -0.23475085 -0.37735128 -0.094614916 0.29023793
-0.058319647 0.053523492 0.12877427 -0.61275816 0.07130273 -0.04888572 -0.09934905 0.08205389
0.06810064 -0.29839996 -0.06936994 0.0816484 -0.25852388 -0.00092208036 -0.30976832 -0.07320183
-0.14034815 0.36962292 -0.042563807 -0.41150898 0.18340397 0.42462528 0.07771968 0.36050954
0.46731153 -0.11046 0.11609727 -0.09222383 -0.19378309 0.28939444 -0.02400752 -0.4612131
-0.0842542 0.045245703 -0.4677888 -0.006165651 -0.49757698 0.056079 0.23986799 -0.44411212
0.40622303 -0.4860889 -0.07968074 0.16129796 0.15398365 -0.38445494 -0.055401914 -0.14341298
0.08924402 -0.16619277 0.015750086 -0.42267665 -0.053212907 -0.15616067 0.043509286 -0.05994353
-0.37174597 -0.26153585 -0.12144368 -0.073726624 -0.43262446 -0.53039217 -0.3761765 -0.05195228
-0.21257855 -0.2926481 0.11833155 -0.18131068 0.07929975 -0.06271083 -0.047776427 0.18574439
-0.21212897 -0.14982525 -0.08744501 0.035006374 -0.084752336 0.099101126 -0.07674358 -0.28121245
-0.0566961 -0.17007107 -0.4368545 -0.34300187 0.2480025 0.23967752 -0.062195566 -0.1462103
-0.29772976 0.2461614 -0.19879614 -0.021411944 -0.39901286 0.011755694 -0.54603493 -0.36712545
-0.053249694 -0.19664828 -0.046959307 -0.33095723 -0.17292023 -0.31877828 0.0350185 0.08630949
-0.05008131 -0.25454277 -0.34212384 0.051507715 -0.18420956 -0.01877856 0.11400322 -0.5817321
-0.01888231 0.110561505 0.097013265 -0.46755955 0.15017363 -0.1075904 0.21561219 0.1461425
-0.24692373 0.036672387 -0.8531883 0.067724064 0.011249067 0.13704737 -0.012042973 -0.7581306
0.22931895 0.11504229 -0.37539893 -0.16829684 -0.051637765 -0.070604034 0.035041384 -1.0084398
-0.044368003 -0.71352243 -0.09988116 -0.71420896 -0.2669674 0.06681834 -0.2745755 -0.31054315
0.042824775 0.0068309493 0.23643732 0.12434587 -0.13076872 -0.019394675 0.11906723 0.003078497
0.013128601 -0.20669393 0.093065925 -0.34967038 -0.5356677 0.12366288 0.010903934 -0.3509944
00000000: ff1f 8bbe c9a0 703e 6e55 073d f2c2 92be
00000010: 137a 46bf 9c5c d5be 02af 9cbe ec4a 7cbe
00000020: 9f86 78be bef5 893b b4bc 8bbe b56f 9abd
00000030: a190 c23d e6da 8d3d 96b5 cb3c acbd 67bd
00000040: 522b d3bd 1656 81be 52a3 35bd 63a3 c23b
00000050: e370 dbbd 1db9 d9bd f2e3 d6bd c8c4 913e
00000060: ad98 873e 2909 963a 102b 73be f1df 9f3d
00000070: f5c9 b93d b77a d1bd eac1 e43c 8bef 13bf
00000080: 8265 9f3c f604 01bf 8f78 363d fc9a 163c
00000090: 1001 85bc 1258 87be 8f8d 1cbe f48d 74be
000000a0: b796 f4bd b105 09bf ef00 afbd 2314 06bf
000000b0: 79cc 70be e518 4bbe b643 91be 04bd a53d
000000c0: 68db ed3c 2c6d d7be c8bd 31be 405f ad3d
000000d0: c6ff 0ebe 03ab 15be c03b 98be d8cf 7abe
000000e0: b69e 4cbe 11ab d3be 3104 4d3e 2ed3 cabd
000000f0: d065 a6be 9ee2 bb3d d54f 99be d2a5 94be
00000100: 69fd af3b 3bcc ddbc 9a0d 8dbd f133 e03d
00000110: bf02 6ebd f582 ebbc bea5 333d 853f cd3d
00000120: 3365 70be 7728 c63d dc20 58be d8a8 1ebd
00000130: b7ae 84be 90c5 743d 1cf0 61bd b0c5 863d
00000140: 81dd 683c 4cba 6abe d90c 943c ec63 6ebe
00000150: 9b9c 6c3d 8922 c43e dd9d 13be b5c1 f13d
00000160: d438 87be 7555 ccbe 2f8c 4f3d 7e72 b83e
00000170: 8762 70be 3034 c1be 77c5 c1bd 119a 943e
00000180: 95e0 6ebd 733b 5b3d 67dd 033e b8dd 1cbf
00000190: 2a07 923d 653c 48bd 8477 cbbd df0b a83d
000001a0: 5978 8b3d e1c7 98be d411 8ebd 4737 a73d
000001b0: 3e5d 84be c4b7 71ba f499 9ebe d7ea 95bd
000001c0: 6db7 0fbe 373f bd3e 6357 2ebd 4eb1 d2be
000001d0: 40ce 3b3e 7c68 d93e 7f2b 9f3d b594 b83e
000001e0: 7543 ef3e da38 e2bd 68c4 ed3d d9df bcbd
000001f0: 136f 46be 822b 943e 6bab c4bc 2024 ecbe
00000200: 778d acbd 8f53 393d 0382 efbe 3b09 cabb
00000210: 69c2 febe 18b3 653d f49f 753e aa62 e3be
00000220: 77fc cf3e a5e0 f8be a82f a3bd 4b2b 253e
00000230: e4ad 1d3e 47d7 c4be 1eed 62bd dada 12be
00000240: 92c5 b63d 702e 2abe 5306 813c 1369 d8be
00000250: c7f5 59bd 95e8 1fbe cb36 323d 5987 75bd
00000260: 7d55 bebe 07e8 85be 77b7 f8bd fcfd 96bd
00000270: f480 ddbe c8c7 07bf 359a c0be eacb 54bd
00000280: 31ae 59be f9d5 95be d057 f23d 82a9 39be
00000290: e867 a23d 896e 80bd 37b1 43bd c733 3e3e
000002a0: 5638 59be ca6b 19be 5f16 b3bd d862 0f3d
000002b0: a292 adbd 88f5 ca3d bd2b 9dbd 14fb 8fbe
000002c0: 2b3a 68bd 1c27 2ebe 65ab dfbe f19d afbe
000002d0: 5ef4 7d3e 066e 753e c7c0 7ebd 27b8 15be
000002e0: 0970 98be bc11 7c3e 3791 4bbe 1a68 afbc
000002f0: 6a4b ccbe f49a 403c f2c8 0bbf def7 bbbe
00000300: 5a1c 5abd 2b5e 49be 6758 40bd 3a73 a9be
00000310: 0012 31be e836 a3be 8f6f 0f3d 08c3 b03d
00000320: 0f22 4dbd 6e53 82be db2a afbe c1f9 523d
00000330: 6ea1 3cbe 7fd5 99bc 857a e93d 65ec 14bf
00000340: 13af 9abc 126e e23d e4ae c63d f763 efbe
00000350: 1ec7 193e 5b58 dcbd 71c9 5c3e 61a6 153e
00000360: 93d9 7cbe c935 163d 8c6a 5abf eab2 8a3d
00000370: 024e 383c 2556 0c3e e44f 45bc d914 42bf
00000380: 96d2 6a3e 4b9b eb3d 4a34 c0be 0256 2cbe
00000390: 1f82 53bd d998 90bd 8e87 0f3d 8e14 81bf
000003a0: 39bb 35bd 68a9 36bf 7e8e ccbd 66d6 36bf
000003b0: f3af 88be 0ed8 883d 2995 8cbe 83ff 9ebe
000003c0: 0869 2f3d 28d6 df3b a01c 723e 0ca9 fe3d
000003d0: 3ce8 05be 95e1 9ebc 85d9 f33d 9cc0 493b
000003e0: 5819 573c 93a7 53be 5999 be3d ff07 b3be
000003f0: 8521 09bf f742 fd3d 6aa6 323c 8ab5 b3be

fc2.bias f4 [256]
0.0154304495 -0.022563808 -0.0994135 -0.3103203 0.3132969 0.027807124 -0.06826501 -0.37544286
0.75368226 -0.10336921 0.30600047 -0.12148314 -0.1044361 0.061179712 -0.061422653 -0.3159062
-0.06115382 -0.06256268 0.10407774 -0.27549195 0.19124332 -0.20097685 0.23715387 -0.0868843
-0.0802305 -0.06534797 -0.12944159 -0.32256547 -0.18690903 0.29321185 0.34150276 0.42545468
-0.2020171 0.1129916 -0.08010665 0.08463591 0.7118779 -0.24163532 -0.13049757 0.2995918
0.0853492 0.21112208 -0.2906717 0.07806635 -0.21513079 0.60188025 0.14269258 0.2595434
0.39228907 0.25235623 0.16867968 -0.08260251 0.4755897 0.15755486 -0.10179042 -0.019716632
0.12439542 -0.18403709 0.28806987 -0.09723921 -0.05080634 -0.30973816 -0.18794599 0.2043465
0.37771454 0.07770203 -0.5779484 -0.12586659 0.6084761 -0.38199508 -0.047180828 0.09471324
0.18092261 -0.016550276 -0.07319638 0.1478712 -0.16961768 0.0994717 0.038288727 -0.074094474
0.2785775 -0.14735891 0.3224052 -0.13865751 -0.18330742 -0.16987145 -0.07283444 -0.0060054758
-0.07870013 -0.08951205 0.1979703 -0.115216166 -0.6639384 0.66266435 -0.02548728 0.31839082
-0.13625237 -0.014233477 0.33970484 0.29282382 -0.11729497 0.013320367 -0.3974339 0.3586149
0.02320538 0.021401823 -0.076547086 -0.0941578 0.32069498 -0.039774295 -0.06415077 -0.16511987
-0.03638231 0.5201455 -0.03623305 -0.03379425 0.23737752 0.38417947 -0.2609199 -0.06685042
0.566713 0.13136873 -0.006234231 0.82883763 -0.18002503 0.0114630405 -0.3709442 -0.11160007
-0.048032325 0.4846622 -0.2470138 -0.09178799 -0.15503284 -0.40742165 -0.09434489 0.18707542
0.17006125 -0.6028636 0.44185764 0.3455139 0.6094479 0.2710915 -0.12873475 0.044444516
0.020553447 -0.11847494 0.060493656 0.123701155 0.28917286 0.11975296 -0.079592936 -0.20178622
-0.23790154 -0.09292874 -0.25675878 0.22967052 0.24796957 -0.17147282 -0.08152673 0.19925022
-0.057681076 -0.23519604 -0.19707695 0.5840384 0.10405011 0.27769572 -0.38206708 -0.10415686
0.21800466 -0.15208592 0.074136905 0.5838839 0.4577636 0.2159122 -0.031245686 0.30752257
-0.00019295388 0.019675354 -0.09845033 0.35787132 0.20528324 0.019091487 0.17933756 -0.081861876
-0.1705928 -0.25711307 0.03285143 -0.059473246 -0.03419827 0.10096229 -0.055973202 0.30440444
-0.026828717 0.26451135 0.18582602 -0.028221162 0.15917657 0.13646962 0.38938144 -0.0142909335
0.07265769 -0.052413452 0.031019015 -0.047749933 0.11326108 -0.4026724 0.20295371 0.020281198
-0.1250957 0.8320254 -0.3647939 -0.15905729 0.527609 0.24836098 -0.16675344 0.5021699
-0.05620537 -0.09683145 0.062488332 0.4305223 0.45097637 -0.28787294 -0.3374863 -0.00025515645
0.46486998 0.12593053 -0.25546363 -0.12984268 0.13728131 0.4207978 -0.06745696 -0.13544764
-0.15220617 -0.1050857 -0.19051142 -0.057254553 0.1025238 -0.33368528 -0.17127852 0.6117486
-0.045466166 -0.19760743 -0.018166535 -0.043713696 0.003486411 -0.20599988 -0.27865458 -0.07534494
-0.08372025 0.114041455 -0.121320225 0.21779592 0.40749738 -0.24682477 -0.14846076 0.051698472
00000000: ffcf 7c3c bcd7 b8bc 4e99 cbbd 4de2 9ebe
00000010: 7468 a03e c4cb e33c 87ce 8bbd 0c3a c0be
00000020: 52f1 403f 3db3 d3bd 18ac 9c3e 27cc f8bd
00000030: 98e2 d5bd 9497 7a3d 5296 7bbd 75be a1be
00000040: 6e7c 7abd dd20 80bd b626 d53d 480d 8dbe
00000050: 4ad5 433e e0cc 4dbe 77d8 723e 65f0 b1bd
00000060: e34f a4bd 28d5 85bd 568c 04be 4d27 a5be
00000070: 1565 3fbe dd1f 963e 73d9 ae3e 32d5 d93e
00000080: 92dd 4ebe 2468 e73d f50e a4bd 9855 ad3d
00000090: a13d 363f 406f 77be 28a1 05be 1964 993e
000000a0: 90cb ae3d 6330 583e ecd2 94be 40e1 9f3d
000000b0: 3f4b 5cbe d314 1a3f 011e 123e dfe2 843e
000000c0: 1dda c83e d634 813e 5eba 2c3e 812b a9bd
000000d0: 7e80 f33e 1056 213e 7f77 d0bd c684 a1bc
000000e0: 07c3 fe3d 3874 3cbe e57d 933e 5a25 c7bd
000000f0: 4f1a 50bd 0096 9ebe ea74 40be 3540 513e
00000100: cd63 c13e 3e22 9f3d 6df4 13bf 2ce3 00be
00000110: 17c5 1b3f dc94 c3be af40 41bd 04f9 c13d
00000120: c743 393e 7294 87bc fce7 95bd 8c6b 173e
00000130: 42b0 2dbe d2b7 cb3d a4d4 1c3d d8be 97bd
00000140: b6a1 8e3e 41e5 16be 4b12 a53e 3cfc 0dbe
00000150: f1b4 3bbe c8f2 2dbe 392a 95bd 95c9 c4bb
00000160: 892d a1bd 1852 b7bd bab8 4a3e 74f6 ebbd
00000170: def7 29bf 5fa4 293f b3ca d0bc 1f04 a33e
00000180: be85 0bbe 8833 69bc cbed ad3e 01ed 953e
00000190: 5838 f0bd ab3d 5a3c 757c cbbe 5f9c b73e
000001a0: 3619 be3c e052 af3c b8c4 9cbd ced5 c0bd
000001b0: 2232 a43e 5fea 22bd 7b61 83bd 2f15 29be
000001c0: 9e05 15bd 4128 053f 1b69 14bd d76b 0abd
000001d0: 1813 733e 2cb3 c43e 4b97 85be dfe8 88bd
000001e0: 1a14 113f 8685 063e 8548 ccbb b42e 543f
000001f0: 7b58 38be 7acf 3b3c 66ec bdbe 948e e4bd
00000200: 8bbd 44bd a525 f83e 30f1 7cbe 57fb bbbd
00000210: eec0 1ebe 9299 d0be e537 c1bd b390 3f3e
00000220: 8924 2e3e 4555 1abf 2a3b e23e 33e7 b03e
00000230: c704 1c3f 81cc 8a3e 0bd3 03be 740b 363d
00000240: b45f a83c fda2 f2bd 32c8 773d 0857 fd3d
00000250: 770e 943e 0a41 f53d 9f01 a3bd 0ca1 4ebe
00000260: 769c 73be 6c51 bebd e375 83be c02e 6b3e
00000270: bceb 7d3e 9296 2fbe 7cf7 a6bd 4008 4c3e
00000280: fe42 6cbd 3bd7 70be 8ace 49be 8a83 153f
00000290: 3918 d53d 222e 8e3e 4c9e c3be 3150 d5bd
000002a0: 9d3c 5f3e 69bc 1bbe 17d5 973d 6a79 153f
000002b0: fe5f ea3e 1618 5d3e f4f6 ffbc 9973 9d3e
000002c0: aa53 4ab9 352e a13c 54a0 c9bd e93a b73e
000002d0: c535 523e c065 9c3c 44a4 373e 33a7 a7bd
000002e0: e1af 2ebe 53a4 83be 398f 063d 389a 73bd
000002f0: 7c13 0cbd 51c5 ce3d 2844 65bd e6da 9b3e
00000300: e6c7 dbbc 086e 873e 2d49 3e3e 1130 e7bc
00000310: 2fff 223e b1be 0b3e 015d c73e 8524 6abc
00000320: 8ecd 943d 7daf 56bd 971b fe3c 6f95 43bd
00000330: 6df5 e73d 142b cebe 19d3 4f3e c124 a63c
00000340: 1619 00be 9eff 543f 44c6 babe eadf 22be
00000350: 6211 073f 5752 7e3e 6ac1 2abe 358e 003f
00000360: 9a37 66bd 914f c6bd c4f3 7f3d 6b6d dc3e
00000370: 60e6 e63e 1564 93be 01cb acbe 85c6 85b9
00000380: 7003 ee3e eff3 003e 21cc 82be 7bf5 04be
00000390: 7993 0c3e cf72 d73e e026 8abd c9b2 0abe
000003a0: efdb 1bbe 2c37 d7bd 6d15 43be c083 6abd
000003b0: 00f8 d13d ccd8 aabe a363 2fbe 8e9b 1c3f
000003c0: bb3a 3abd 9a59 4abe fcd1 94bc 220d 33bd
000003d0: 457c 643b a2f1 52be d0ab 8ebe 734e 9abd
000003e0: 8675 abbd 918e e93d bd76 f8bd e505 5f3e
000003f0: 7fa3 d03e a2bf 7cbe 1906 18be c7c1 533d

fc3.weight f4 [1, 256]
-0.1337568 0.002718994 -0.11406641 -0.12943663 0.059109125 0.12528603 0.016826412 -0.054162446
0.16049369 -0.092759706 0.09098401 -0.16405609 -0.14389996 0.08093783 -0.12901261 -0.12985916
-0.18338606 0.06149122 0.053939447 -0.09098947 0.05949802 -0.049020533 0.061298717 -0.13488053
0.005058861 0.0036334796 -0.09019742 -0.05145164 -0.10916125 0.0842745 0.038954895 0.056040544
-0.27061728 0.08221764 -0.08151605 0.089369714 0.13296533 -0.054292947 -0.058896415 0.041544646
0.071646735 0.04509902 -0.042632814 0.09894212 -0.06819496 0.06676238 0.035886005 0.08456178
0.052540477 0.036053833 0.14783049 -0.0009054326 0.1824912 0.06324401 0.11581569 -0.083835915
0.063835286 -0.053945497 0.049491584 -0.007036819 -0.10072764 -0.17754035 -0.22465034 0.07841699
0.042639505 0.070141524 -0.2409706 -0.17261115 0.096195094 -0.07295913 -0.09955595 0.040411863
0.09646345 -0.11242282 -0.0041283052 0.13776991 -0.1351912 0.19242626 0.24779178 -0.30723017
0.05415235 -0.09777221 0.064316645 -0.19418989 -0.14987998 -0.056976542 -0.24665658 0.04531731
-0.33645716 -0.006743772 0.08990313 -0.0597192 -0.09608835 0.111765325 0.18805908 0.05456738
-0.093149625 0.057745554 0.053322528 0.05715755 -0.13772373 0.06614491 -0.05743705 0.032482736
0.045417827 0.124645546 -0.007180912 0.004988468 0.06285439 -0.09889206 -0.0055470034 -0.07492196
-0.27274814 0.07818485 -0.10052252 -0.006358902 0.070469335 0.032689232 -0.0688076 -0.20134912
0.08413834 0.05577005 0.07428653 0.17135656 -0.25939476 -0.12413465 -0.084656514 0.09076253
0.0062974766 0.07703144 -0.13766508 -0.060479134 -0.094985634 -0.14880222 -0.08381729 0.068549775
0.06625112 -0.106574215 0.036516126 0.071824946 0.09658152 0.02585391 -0.1391023 0.23575586
0.06941423 -0.16321297 0.06537729 0.07269137 0.12491925 0.047224212 0.0011580862 -0.072071135
-0.039451774 0.06285629 -0.08892409 0.079730116 0.052089866 -0.09755446 0.15969408 0.043659773
-0.1052562 -0.12666255 -0.117741875 0.046157703 0.07147729 0.0672327 -0.089081034 -0.016118655
0.047610387 -0.39801854 0.14311637 0.13571145 0.05522947 0.08547782 -0.08570627 0.03888335
0.0056325975 0.03891402 -0.20066889 0.04694364 0.1176961 -0.18845877 0.062056042 -0.16888708
-0.12528045 -0.09410888 0.048527118 0.16798034 0.11247006 0.041961856 -0.22020486 0.034346703
-0.09725145 0.04926834 0.041971706 0.0036357334 0.25000083 0.08922005 0.051477 -0.40303776
0.044750433 0.070845306 0.0973155 -0.077378854 0.030131824 -0.13886271 0.029287279 0.052400295
-0.16446051 0.20083657 -0.082781 -0.17047551 0.064334005 0.056871966 -0.049666602 0.07676114
-0.11087831 -0.087142214 0.24948883 0.06371636 0.13452184 -0.07377681 -0.09926314 0.2801273
0.05080104 0.1083269 -0.05511889 -0.075257175 0.08062847 0.04863095 -0.3338987 -0.18538056
-0.115353644 -0.11923104 -0.2801205 0.10581527 0.14517026 -0.071868666 -0.15663485 0.07266038
-0.09610323 -0.19670215 -0.0044616596 -0.0026510668 0.06009429 -0.1064552 -0.21196572 -0.08280653
-0.053338327 0.1662742 -0.09791475 0.0675 0.04129685 -0.23106249 -0.14129019 0.19998978
00000000: 8bf7 08be 2631 323b a69b e9bd 098b 04be
00000010: 691c 723d fb4a 003e 8bd7 893c 71d9 5dbd
00000020: 7558 243e cdf8 bdbd d355 ba3d 52fe 27be
00000030: 835a 13be bcc2 a53d e21b 04be cdf9 04be
00000040: 8ec9 3bbe 38de 7b3d 9cef 5c3d b058 babd
00000050: 32b4 733d c1c9 48bd 5d14 7b3d 1f1e 0abe
00000060: cdc4 a53b ac1f 6e3b 6db9 b8bd f4be 52bd
00000070: ef8f dfbd 1c98 ac3d 2b8f 1f3d c58a 653d
00000080: 598e 8abe b961 a83d e3f1 a6bd 7807 b73d
00000090: 1028 083e 4862 5ebd 5e3d 71bd b82a 2a3d
000000a0: 86bb 923d c0b9 383d bf9f 2ebd 2ba2 ca3d
000000b0: cda9 8bbd b7ba 883d 34fd 123d ba2e ad3d
000000c0: af34 573d 2fad 133d e060 173e 8e5a 6dba
000000d0: f9de 3a3e 1386 813d c730 ed3d 2ab2 abbd
000000e0: 13bc 823d f4f5 5cbd b0b7 4a3d 1e95 e6bb
000000f0: 4b4a cebd 23cd 35be bd0a 66be 1699 a03d
00000100: c3a6 2e3d 5ca6 8f3d ffc0 76be fac0 30be
00000110: ef01 c53d 996b 95bd fde3 cbbd e986 253d
00000120: a18e c53d ef3d e6bd bc46 87bb 8e13 0d3e
00000130: 906f 0abe 640b 453e 21bd 7d3e 464d 9dbe
00000140: dbce 5d3d cc3c c8bd 72b8 833d b7d9 46be
00000150: 237a 19be 3c60 69bd 8b93 7cbe a59e 393d
00000160: 1d44 acbe dcfa dcbb 221f b83d 1f9c 74bd
00000170: f8c9 c4bd 38e5 e43d 8f92 403e 0c82 5f3d
00000180: 3bc5 bebd 9a86 6c3d b968 5a3d 091e 6a3d
00000190: 7307 0dbe fc76 873d 1d43 6bbd 9e0c 053d
000001a0: 0b08 3a3d 2a46 ff3d db4d ebbb 4d76 a33b
000001b0: cdb9 803d ec87 cabd a3c3 b5bb af70 99bd
000001c0: a5a5 8bbe 611f a03d c0de cdbd 565e d0bb
000001d0: 3a52 903d 25e5 053d 00eb 8cbd 772e 4ebe
000001e0: b950 ac3d 236f 643d 8923 983d 1878 2f3e
000001f0: 64cf 84be 4f3a febd 6560 adbd b5e1 b93d
00000200: 105b ce3b a9c2 9d3d 13f8 0cbe f8b8 77bd
00000210: d487 c2bd 9c5f 18be 66a8 abbd d363 8c3d
00000220: abae 873d 9543 dabd ef91 153d f518 933d
00000230: 88cc c53d 94cb d33c d570 0ebe fc69 713e
00000240: 0c29 8e3d 4d21 27be 87e4 853d 37df 943d
00000250: aad5 ff3d 2d6e 413d edca 973a 089a 93bd
00000260: 2f98 21bd ccba 803d d51d b6bd 8b49 a33d
00000270: 2f5c 553d a2ca c7bd d886 233e 97d4 323d
00000280: 9090 d7bd d4b3 01be a722 f1bd dc0f 3d3d
00000290: af62 923d 4cb1 893d 1e70 b6bd 450b 84bc
000002a0: 1c03 433d 16c9 cbbe 198d 123e f1f7 0a3e
000002b0: 4c38 623d ff0e af3d c586 afbd 2644 1f3d
000002c0: a791 b83b 4f64 1f3d 257c 4dbe f947 403d
000002d0: a70a f13d 56fb 40be 7a2e 7e3d bcf0 2cbe
000002e0: 8549 00be 28bc c0bd 5fc4 463d 0a03 2c3e
000002f0: b456 e63d 32e0 2b3d 627d 61be 21af 0c3d
00000300: c52b c7bd 99cd 493d 86ea 2b3d 7c45 6e3b
00000310: 1c00 803e 00b9 b63d 8cd9 523d f75a cebe
00000320: 3b4c 373d 5817 913d 594d c73d ce78 9ebd
00000330: 04d7 f63c 0732 0ebe e0eb ef3c b1a1 563d
00000340: 5668 28be 1aa8 4d3e 1689 a9bd 2291 2ebe
00000350: 8cc1 833d 94f2 683d 356f 4bbd f234 9d3d
00000360: 2b14 e3bd 9e77 b2bd 007a 7f3e b97d 823d
00000370: 18c0 093e 4c18 97bd 794a cbbd d86c 8f3e
00000380: c014 503d 7eda dd3d 58c4 61bd 6f20 9abd
00000390: 8a20 a53d 3f31 473d c5f4 aabe 67d4 3dbe
000003a0: 883e ecbd 672f f4bd f46b 8fbe adb5 d83d
000003b0: 83a7 143e e12f 93bd e364 20be f7ce 943d
000003c0: c5d1 c4bd 4a6c 49be 1d33 92bb 85bd 2dbb
000003d0: 6e25 763d 2f05 dabd 8b0d 59be 7896 a9bd
000003e0: 4a79 5abd c943 2a3e 8787 c8bd 713d 8a3d
000003f0: e326 293d a59b 6cbe 60ae 10be 1fca 4c3e
