checkpoint_actor.pth (torch, 303959 bytes, 6 tensors)

fc1.weight f4 [256, 33]
0	0xbc2183a3	-0.009858045
1	0xbd8d0546	-0.068857715
2	0x3c46732f	0.012112423
3	0x3d82367d	0.06358049
4	0x3a826a30	0.0009949859
5	0xbe91b7b2	-0.2846046
6	0xbcb8e7cb	-0.022571465
7	0xbc556cd9	-0.01302644
8	0x3da66013	0.081237935
9	0xbcdb01a8	-0.026734188
10	0x3d6eff3b	0.058348875
11	0x3b74bfb7	0.0037345716
12	0x3cf4210c	0.029800914
13	0xbda0ad2d	-0.07845531
14	0x3c0a9981	0.00845945
15	0x3db69977	0.0891599
16	0xbdab2204	-0.08356097
17	0x3d209421	0.039203767
18	0x3e0966e1	0.13418151
19	0x3d6755f5	0.05647846
20	0x3cda67ef	0.026660888
21	0xbc71a855	-0.014749606
22	0xbd8631f4	-0.065524966
23	0xbd742044	-0.059601083
24	0x3c96660f	0.018359212
25	0x3ac7b989	0.0015237789
26	0x3d888eb3	0.06667843
27	0xbdf407f2	-0.11915578
28	0xbd940403	-0.07227328
29	0xbd48e668	-0.049047858
30	0x3d582205	0.05276682
31	0xbd47d436	-0.048786364
32	0x3ec2aa2c	0.38020456
33	0x3d9bee37	0.07613795
34	0xbc482e49	-0.0122180665
35	0x3cb8a408	0.022539154
36	0xbd2c8de2	-0.042127497
37	0x3de8fc4c	0.11376247
38	0x3dacfbf7	0.08446496
39	0x3d35c7cb	0.04437999
40	0x3e00ba6d	0.12571116
41	0xbda1e786	-0.07905488
42	0x3d9e371e	0.077253565
43	0x3c7ffcdd	0.015624252
44	0x3d531b54	0.051539734
45	0xbd89e82a	-0.06733735
46	0x3d6be073	0.0575871
47	0x3dca5804	0.09880069
48	0xbbba37ac	-0.005682906
49	0xbe0e8b4f	-0.1392033
50	0x3b25a904	0.0025277743
51	0x3db2496e	0.08705412
52	0x3df29861	0.1184547
53	0x3d1eb5c9	0.038747583
54	0x3d109920	0.03530228
55	0xbcc72478	-0.024309382
56	0x3e171be6	0.14756736
57	0xbcb8a846	-0.022541177
58	0xbd5ab6bb	-0.05339692
59	0x3d40d56a	0.047078528
60	0x3d4448c8	0.047920972
61	0xbe004239	-0.12525262
62	0x3c5434a0	0.012952
63	0xbc9b13eb	-0.018930396
64	0x3ccbd5f8	0.024882302
65	0x3ed0a03c	0.4074725
66	0x3df40381	0.11914731
67	0x3e13f1e1	0.14447738
68	0xbdae5e3a	-0.08514066
69	0xbdb65701	-0.089033134
70	0x3dc77146	0.09738402
71	0x3eabb197	0.33533928
72	0xbe150adf	-0.14554928
73	0xbcb18460	-0.021669567
74	0x3d98e10e	0.07464801
75	0x3dcd0ad8	0.10011834
76	0x3d3c0c68	0.04591027
77	0x3db6a97d	0.08919046
78	0xbcf486e7	-0.029849483
79	0x3d96429e	0.07336925
80	0x3d4a3213	0.04936416
81	0xbdf03929	-0.117296524
82	0x3eefc274	0.46828043
83	0xbe30adfe	-0.17253873
84	0x3e967de2	0.29392916
85	0xbd747de8	-0.059690386
86	0xbd0f0e43	-0.03492571
87	0xbbc4461c	-0.005989803
88	0xbd1fae23	-0.03898443
89	0x3e0d3524	0.13789803
90	0xbc4f7cc3	-0.012664023
91	0x3b9f7426	0.004866141
92	0xbd05b673	-0.0326447
93	0x3d7dd8ef	0.061974462
94	0x3bafbbc9	0.005362962
95	0x3cd90fd0	0.026496798
96	0xbe116bd6	-0.14201292
97	0xbd77233a	-0.06033633
98	0x3eeab87e	0.4584388
99	0x3da8bcbd	0.08239124
100	0xbd1d0ab1	-0.038340274
101	0xbbc13575	-0.005896265
102	0xbe167ac9	-0.14695276
103	0xbb8c1313	-0.0042747348
104	0x3c840c59	0.01611917
105	0xbe2f3ca9	-0.17112984
106	0xbdaf9fc3	-0.08575394
107	0x3dbe2f42	0.092863575
108	0xbb7ef972	-0.0038906005
109	0x3c424be0	0.01185891
110	0x3d3463d2	0.04404051
111	0xbcdde2ce	-0.027085688
112	0xbd6764c3	-0.05649258
113	0xbdd2c969	-0.10292322
114	0x3d808ca9	0.06276829
115	0x3e21ebf7	0.1581267
116	0xbe4d8e3c	-0.2007379
117	0x3ddfc9f8	0.10927194
118	0xbde6bd85	-0.11266617
119	0xbda447df	-0.08021521
120	0x3d41f713	0.04735477
121	0xbbd2bd5c	-0.006431265
122	0xbd47098c	-0.04859309
123	0x3cb75a78	0.022382006
124	0xbcdd0226	-0.026978564
125	0xbe0904bb	-0.13380711
126	0xbd8381cf	-0.064212434
127	0xbd6c2914	-0.057656363
128	0xbd7fb8e2	-0.062432177
129	0x3c901be6	0.017591428
130	0xba014700	-0.00049315393
131	0x3ef6f5a6	0.4823429
132	0xbcd2d0f5	-0.025734404
133	0x3d9e74c0	0.07737112
134	0x3d3e272d	0.04642408
135	0x3d666014	0.05624397
136	0x3cb8d262	0.022561256
137	0x3e2917ae	0.1651294
138	0x3de8d116	0.11368005
139	0x3dc1a3f3	0.09455099
140	0x3e0eb73b	0.13937084
141	0xbc20e200	-0.009819508
142	0x3d96efbc	0.073699445
143	0xbcaea86a	-0.02132054
144	0x3d66c6e5	0.056342024
145	0x3dd07e0a	0.1018029
146	0xbd6dc5d1	-0.05804998
147	0x3b391669	0.0028242117
148	0xbd34cfc7	-0.044143464
149	0x3e18bbe7	0.14915429
150	0xbb203ff1	-0.0024452175
151	0xbe3ca825	-0.18423517
152	0xbde1ddbd	-0.11028621
153	0x3d99994a	0.07499941
154	0xb917b058	-0.00014466175
155	0x3d96945f	0.07352518
156	0x3d0c849a	0.034306146
157	0xbd1bc224	-0.038026944
158	0xbde74b16	-0.112936184
159	0xbc3f396f	-0.011671408
160	0xbd8d8d08	-0.06911665
161	0x3d7e76aa	0.062124886
162	0x3d75cbb5	0.060008723
163	0x3d50ce44	0.05097796
164	0x3e630525	0.22169931
165	0x3dbbd1e0	0.0917089
166	0xbdaf3b8e	-0.08556281
167	0xbdaf027c	-0.08545396
168	0x3da25fff	0.07928466
169	0xbddf24db	-0.108957015
170	0x3d7bbed1	0.061461274
171	0x3ded41c2	0.11584808
172	0x3dc95645	0.09830908
173	0x3d519add	0.05117308
174	0xbc05eece	-0.008174611
175	0x3db75073	0.08950891
176	0x3c3a16e1	0.011357994
177	0xbc3932c1	-0.011303605
178	0xbcf093fd	-0.029367441
179	0xbe11cb1d	-0.14237638
180	0x3d49f3ea	0.04930488
181	0xbd8d028c	-0.068852514
182	0xbe20a6bd	-0.15688606
183	0x3df9347b	0.12168213
184	0xbd892669	-0.06696779
185	0xbc6f4f47	-0.014606304
186	0xbd1313b7	-0.035907473
187	0xbcd247ba	-0.025668968
188	0x3c09397e	0.008375524
189	0xbdfde2bc	-0.12396762
190	0xbcfb97e8	-0.030712083
191	0xbdbda160	-0.092592955
192	0xbd22cc07	-0.039745357
193	0xbdbdf383	-0.09274962
194	0x3d6c9c58	0.05776629
195	0xbcf267b4	-0.029590465
196	0x3d107300	0.035265923
197	0x3e0013f5	0.12507613
198	0xbc11ea7c	-0.008906003
199	0xbd81c143	-0.0633569
200	0x3cc39316	0.023873847
201	0x3ca72337	0.020402534
202	0x3e0a5ab5	0.13511164
203	0xbdc331c6	-0.09530978
204	0xbd3bab7d	-0.04581784
205	0xbd747a5a	-0.059686996
206	0x3d9bc0c6	0.07605128
207	0x3d9bf616	0.076152965
208	0xbd91cd88	-0.0711928
209	0xbce1ce44	-0.027564175
210	0x3c16a505	0.009194617
211	0x3d8d9b9c	0.06914446
212	0x3c418aab	0.011812846
213	0xbd23fdf3	-0.040037107
214	0x3da54e41	0.080715664
215	0xbd954d6b	-0.07290157
216	0xbe05bb2e	-0.13059685
217	0x3e2bbe6d	0.1677186
218	0xbd1fba71	-0.038996164
219	0xbc882f63	-0.016624158
220	0x3d834865	0.064102925
221	0xbda776fd	-0.08176992
222	0xbd8b75e2	-0.06809594
223	0x3cbc1402	0.02295876
224	0xbdb4fa6d	-0.088368274
225	0xbd519b82	-0.051173694
226	0x3d82fcfa	0.06395908
227	0x3c267050	0.010158613
228	0x3d4e51e0	0.05037105
229	0x3cf02da4	0.029318638
230	0x3f3fd454	0.7493336
231	0xbe376838	-0.1791085
232	0xbd8d3897	-0.06895559
233	0x3bac041e	0.0052495142
234	0x3e14ebf2	0.14543131
235	0xbd9bb311	-0.076025136
236	0xbd88606c	-0.06659016
237	0xbd2c822c	-0.04211633
238	0xbcc72765	-0.024310777
239	0x3e12ce8e	0.14336607
240	0xbd5159a9	-0.051110897
241	0x3ca668e2	0.020313684
242	0x3d507087	0.050888564
243	0xbd37a57d	-0.044835556
244	0xbc98c2a9	-0.018647509
245	0xbe0a921f	-0.13532303
246	0x3bafc2f9	0.0053638187
247	0x3dc90e44	0.09817174
248	0x3d01a4e3	0.03165139
249	0xbc5ba1cd	-0.0134052755
250	0x3d23ef04	0.040022865
251	0x3cce636b	0.02519389
252	0x3d53391e	0.051568143
253	0xbdbed014	-0.093170315
254	0xbd88797c	-0.06663796
255	0xbd200daa	-0.03907553

fc1.bias f4 [256]
0	0x3c3e08b2	0.011598753
1	0x3d60d645	0.054891843
2	0x3d8eb6bb	0.06968447
3	0x3e0da280	0.1383152
4	0x3d0f3a37	0.034967627
5	0xbddf3b97	-0.10900038
6	0xbdbaadbe	-0.0911517
7	0xba478f13	-0.0007612567
8	0x3d3d582f	0.046226677
9	0xbe3ec2ec	-0.18629044
10	0x3cd9f329	0.026605206
11	0xbd2f31b4	-0.04277201
12	0x3c460112	0.012085216
13	0xbb87d3b9	-0.0041451124
14	0xbb846494	-0.00404031
15	0xbb1410ad	-0.0022592947
16	0x3e353247	0.1769496
17	0xbdd10d04	-0.10207561
18	0xbde7b551	-0.1131388
19	0x3cf5e6cd	0.030017281
20	0xbd867b37	-0.0656647
21	0xbcd43be9	-0.025907474
22	0x3e8283df	0.25491235
23	0x3d19cef0	0.037550867
24	0x3d59f804	0.05321504
25	0x3d389f5f	0.045073863
26	0xbe5aad26	-0.21355113
27	0xbc9332da	-0.017968584
28	0x3ded3657	0.1158263
29	0x3d38a346	0.045077585
30	0x3e03af89	0.1285993
31	0xbce2d688	-0.027690187
32	0x3e5d3ea7	0.21605931
33	0x3da75a13	0.08171477
34	0xbdf64715	-0.120252766
35	0xbd2226ff	-0.03958797
36	0x3ca9b181	0.020714523
37	0xbd8e6922	-0.06953646
38	0xbde41ef5	-0.11138717
39	0x3d9eef2f	0.077604644
40	0x3cf03a54	0.029324688
41	0x3e121a44	0.14267832
42	0x3d89c4c3	0.067269824
43	0x3e3c2c93	0.18376379
44	0xbd52c4e4	-0.0514573
45	0xbcc35053	-0.023842013
46	0x3db33e2a	0.08752091
47	0xbc8ecd01	-0.017431738
48	0xbc8e663e	-0.017382737
49	0x3cba2c2c	0.02272614
50	0xbe1451cc	-0.14484328
51	0x3da0eb5e	0.07857393
52	0x3de69b4a	0.11260088
53	0x3e10285d	0.14077897
54	0x3e441871	0.19149949
55	0x3cc4cd5d	0.024023706
56	0x3e47c0d4	0.19507152
57	0x3dc89672	0.0979432
58	0xbc31db1c	-0.010855462
59	0x3d0ac78d	0.033881713
60	0x3d930a1a	0.07179661
61	0x3bed1a56	0.0072358055
62	0xbc89baac	-0.016812645
63	0x3daaeb61	0.08345676
64	0x3cb9665d	0.022631818
65	0xbddcfc06	-0.10790257
66	0x3ddfbea3	0.10925033
67	0xbdb74abb	-0.089498006
68	0x3e020e9d	0.12700887
69	0x3e721ef9	0.23644628
70	0xbcad0a65	-0.02112312
71	0xbccbfd6f	-0.02490112
72	0x3d7eb9e7	0.06218901
73	0x3e275c75	0.16343863
74	0xbd0062ff	-0.03134441
75	0x3c8ff3f3	0.017572379
76	0xbde52993	-0.1118957
77	0xbd32ade8	-0.04362288
78	0xbe2cf03d	-0.16888519
79	0xbe5335b9	-0.20625962
80	0x3e1764d4	0.14784557
81	0x3e0e40da	0.13891926
82	0xbe0c01c1	-0.13672544
83	0xbdec8b9f	-0.11550068
84	0x3e509eec	0.20373124
85	0x3db8e328	0.090277016
86	0x3d79da4b	0.060999196
87	0x3c9fc25f	0.019501863
88	0xbcd9439a	-0.026521493
89	0xbdf0ea78	-0.11763471
90	0x3e0e7d1f	0.13914917
91	0xbe08c04a	-0.13354602
92	0xbe046f5b	-0.12933104
93	0x3d275dca	0.04086093
94	0xbd42b1ba	-0.047532775
95	0xbc9c6fe9	-0.019096332
96	0x3dc6bb68	0.09703714
97	0xbe31c61e	-0.17360732
98	0xbd28d977	-0.041223016
99	0xbe100e09	-0.14067854
100	0xbd889f0a	-0.06670959
101	0x3d60ed3b	0.05491374
102	0x3e2d9a23	0.1695333
103	0x3d98be89	0.07458217
104	0x3dc9e6d5	0.09858481
105	0xbdff397a	-0.12462135
106	0x3cc91aa7	0.024548842
107	0xbde8009d	-0.11328242
108	0x3c053837	0.008131078
109	0x3da42ac9	0.08015973
110	0xbcb146cc	-0.021640204
111	0x3dfda355	0.12384669
112	0x3e112ed7	0.14178024
113	0x3d528f84	0.0514064
114	0x3e53c325	0.2067991
115	0x3d3b8ea1	0.04579032
116	0x3bd5830e	0.006515867
117	0x3e0be50a	0.1366159
118	0x3e4db891	0.20089938
119	0xbd9f1e08	-0.077694
120	0x3c43d3d8	0.011952363
121	0x3e35c4f6	0.17750916
122	0xbdc6dea5	-0.09710435
123	0xbe42665e	-0.18984362
124	0xbe1e5d1f	-0.1546521
125	0xbe033e8c	-0.12816828
126	0x3e29d85f	0.16586445
127	0x3e39fba5	0.18162401
128	0x3d045e84	0.0323167
129	0xbde34aae	-0.110982284
130	0x3d816d3d	0.06319664
131	0x3d631729	0.05544201
132	0xbd82990e	-0.06376849
133	0x3d134cdb	0.035961967
134	0xbd08a484	-0.03336002
135	0x3d2be7d1	0.041969124
136	0x3deb7de0	0.11498618
137	0x3e05b6f5	0.13058074
138	0xbd07ec4b	-0.03318433
139	0x3e7b2788	0.24526799
140	0x3c35bac8	0.011091895
141	0xbe13f297	-0.1444801
142	0x3e3a3f06	0.18188104
143	0x3e489406	0.19587716
144	0x3dee8f19	0.116483875
145	0x3e84b945	0.259226
146	0x3e24f4e1	0.16109039
147	0x3db32739	0.087477155
148	0x3e049015	0.12945588
149	0xbdb384e9	-0.08765585
150	0xbdd86f8a	-0.105681494
151	0xbe02f02d	-0.12786932
152	0x3d7e9237	0.06215116
153	0xbe0873c5	-0.13325413
154	0xbd62a4c0	-0.0553329
155	0x3dba3858	0.09092778
156	0xbb9ac4b9	-0.004723158
157	0xbd3a39ef	-0.045465406
158	0xbd4d481f	-0.05011761
159	0x3dacabb3	0.084311865
160	0xbdba6f3c	-0.091032475
161	0xbd92a7b6	-0.071608946
162	0xbdae8281	-0.085209854
163	0x3dd56c82	0.10421087
164	0xbd93521d	-0.07193396
165	0x3db1d973	0.08684053
166	0xbcd0580e	-0.025432613
167	0x3b379f8b	0.002801868
168	0xbda77cd1	-0.08178104
169	0xbe442029	-0.19152893
170	0x3d96a4fc	0.07355687
171	0x3d905358	0.070471466
172	0x3e303f2a	0.17211595
173	0x3e224f83	0.15850644
174	0x3de5aaf5	0.11214248
175	0x3df7f1f2	0.12106694
176	0x3dc8cab0	0.098042846
177	0x3db406f8	0.08790392
178	0xbdb3a943	-0.087725185
179	0x3de70ce1	0.11281753
180	0x3d01835f	0.031619426
181	0x3d175de9	0.036954794
182	0xbd7dad03	-0.061932575
183	0x3ddfc1bb	0.10925623
184	0x3e2ed562	0.17073587
185	0xbc4f299a	-0.012644196
186	0xbd2bf38c	-0.04198031
187	0xbde6a623	-0.11262157
188	0x3e54635d	0.20741029
189	0xbc3dd762	-0.011586996
190	0x3d199fa4	0.03750576
191	0xbc98f5b1	-0.018671842
192	0x3dc3a131	0.09552229
193	0x3e3ffed7	0.18749557
194	0x3e013518	0.1261791
195	0x3dabe722	0.083936945
196	0xbda8dc63	-0.082451604
197	0xbde93ef3	-0.1138896
198	0x3c8ff70f	0.017573861
199	0xbdaf492f	-0.085588805
200	0xbdd6a668	-0.10480958
201	0xbdfcf6c0	-0.12351751
202	0xbcd49c40	-0.025953412
203	0xbd2de195	-0.04245146
204	0xbc0c3c75	-0.008559336
205	0x3dcd23b0	0.100165725
206	0x3d739a27	0.059473183
207	0x3de84b96	0.11342542
208	0xbe1573c9	-0.1459495
209	0xbd5cd6e6	-0.05391588
210	0xbe117bb8	-0.14207351
211	0xbdcf37f1	-0.10118092
212	0x3e03d115	0.12872727
213	0xbe2b25c5	-0.16713627
214	0x3e2b130e	0.16706488
215	0x3e283fbc	0.16430563
216	0x3de09db4	0.109675795
217	0xbd855bc2	-0.06511642
218	0x3dde3f3b	0.10851904
219	0xbe083392	-0.13300923
220	0x3de56db4	0.11202565
221	0x3e3e114a	0.18561283
222	0x3dcaa2a8	0.098943055
223	0x3d683592	0.056691714
224	0x3d858eed	0.065214016
225	0x3ccd66d2	0.025073443
226	0xbe0279cc	-0.12741774
227	0x3cde7e2f	0.027159778
228	0xbe144687	-0.14480029
229	0x3d9a5687	0.07536035
230	0xbd938732	-0.07203521
231	0x3dee5345	0.11636976
232	0xbd7d15c8	-0.06178835
233	0x3e39bb65	0.18137892
234	0xbda1f2b2	-0.079076186
235	0x3d1437c5	0.036186
236	0xbd9cf871	-0.07664574
237	0x3e3cd6ac	0.18441266
238	0x3d0d76f2	0.034537263
239	0xbe287ca5	-0.16453798
240	0xbdbca782	-0.09211637
241	0x3d33b78f	0.043876227
242	0x3d12a18d	0.035798598
243	0x3e5c4e6b	0.21514289
244	0x3e1c0f66	0.15240249
245	0xbd82965e	-0.063763365
246	0x3e82257f	0.25419232
247	0x3de4a4a4	0.11164215
248	0x3c124025	0.008926426
249	0x3d1c2636	0.03812238
250	0x3d7ae54a	0.061253823
251	0xbdd27b1a	-0.10277386
252	0x3e25b97c	0.16184038
253	0xbe835de2	-0.25657564
254	0xbd7f6d4f	-0.062360104
255	0x3dea91c2	0.11453582

fc2.weight f4 [256, 256]
0	0x3c9a9fb9	0.01887499
1	0x3db93810	0.09043896
2	0x3db37ae8	0.08763677
3	0x3e35ec79	0.17765988
4	0x3e169029	0.1470343
5	0x3bd80860	0.0065927953
6	0x3c958eff	0.018256662
7	0x3d9ae03e	0.07562302
8	0xbd1afe3a	-0.037840106
9	0xbbc14e94	-0.00589926
10	0x3d6c17ca	0.057639875
11	0xbd8320d2	-0.06402744
12	0xbceffc99	-0.029295253
13	0x3d252757	0.04032072
14	0xbe3958ed	-0.18100329
15	0xbdd23943	-0.10264828
16	0x3e33ed8d	0.17571087
17	0x3dc8af5e	0.09799074
18	0xbcab7ffd	-0.020935053
19	0x3d6a6b14	0.057231024
20	0x3beb7b18	0.007186305
21	0x3e712690	0.23549867
22	0xbdb6dbc1	-0.089286335
23	0xbe5d4c36	-0.21611103
24	0x3d1bd067	0.038040545
25	0xbd80a347	-0.06281143
26	0x3db2f93e	0.087389454
27	0xbe0a5e6e	-0.13512585
28	0x3d1171f9	0.035509083
29	0xbc939558	-0.018015549
30	0xbc889236	-0.016671281
31	0xbdbdbba4	-0.09264305
32	0xbcd750b2	-0.026283596
33	0x3c1b5364	0.009480331
34	0xbe2c9c3c	-0.16856474
35	0x3e37e972	0.17960146
36	0x3d16b4fc	0.036793694
37	0x3cb9f5ce	0.022700217
38	0x3bd08e89	0.0063646478
39	0xbd3ac596	-0.04559859
40	0xbd9ca109	-0.076479025
41	0x3c828121	0.015930714
42	0x3d942578	0.07233709
43	0x3d12a94f	0.035805997
44	0xbd262e15	-0.04057129
45	0x3d5f9e37	0.054594245
46	0xbc914e26	-0.01773746
47	0x3c2417af	0.010015412
48	0x3d03bbde	0.032161586
49	0x3d8f4714	0.06995979
50	0x3e189090	0.14898896
51	0x3d74ea6a	0.059793867
52	0xbe5fb941	-0.21848013
53	0xbdba327c	-0.090916604
54	0x3cf6781a	0.030086566
55	0xbcd5deaf	-0.02610716
56	0x3b48e259	0.0030652492
57	0x3d9cdb85	0.076590575
58	0xbd845932	-0.06462325
59	0x3d8fa904	0.07014659
60	0x3cffde47	0.03123392
61	0xbdbb0fc3	-0.09133866
62	0xbe144350	-0.14478803
63	0xbe1ace37	-0.15117727
64	0x3c16f1d9	0.009212934
65	0x3d334d38	0.043774813
66	0x3e15f6e5	0.14644964
67	0xbe1204e8	-0.14259684
68	0x3c4ad23f	0.012379228
69	0xbd3e4acc	-0.04645805
70	0x3d82c47e	0.06385134
71	0xbe0ce592	-0.13759449
72	0x3d93b462	0.0721214
73	0x3d5be353	0.05368359
74	0x3e3bdbe7	0.18345605
75	0x3a63e272	0.0008693106
76	0x3c9636a4	0.018336602
77	0xbe8b1e7a	-0.2717169
78	0x3d83758d	0.064189054
79	0xbd7535fe	-0.059865944
80	0xbdacffd4	-0.08447233
81	0xbf16e384	-0.5894091
82	0xbe7111ad	-0.23541899
83	0xbe8882f1	-0.266624
84	0xbeb8c3aa	-0.3608678
85	0x3d9d9a08	0.07695395
86	0x3e1049db	0.14090674
87	0xbe269b35	-0.16270144
88	0x3dbce19d	0.0922272
89	0x3e54473e	0.20730302
90	0x3d973b9a	0.07384415
91	0xbe17c904	-0.14822775
92	0x3dc31084	0.095246345
93	0x3d3462c9	0.04403952
94	0xbbadeaf4	-0.0053075496
95	0x3df6cd9b	0.12050935
96	0xbd3a4bf8	-0.045482606
97	0x3db81b7d	0.08989618
98	0xbd8e1395	-0.06937329
99	0xbd5038b2	-0.05083532
100	0x3d4cf5c6	0.050039075
101	0xbde90e91	-0.113797314
102	0x3d6af3e5	0.057361502
103	0xbd979770	-0.07401931
104	0xbc90b514	-0.01766447
105	0x3dd8fc9d	0.10595057
106	0x3e31c3f5	0.17359908
107	0x3dde526b	0.10855564
108	0x3d3756e1	0.04476059
109	0x3d48fd8b	0.049069922
110	0xbb663684	-0.0035127709
111	0x3df0ed46	0.11764006
112	0xbd95861a	-0.073009685
113	0x3e06f7bd	0.13180442
114	0xbdf5ec15	-0.1200792
115	0x3e5e0609	0.2168199
116	0xbdc96312	-0.09833349
117	0xbe26a4fc	-0.16273874
118	0x3dc8edef	0.09811007
119	0xbe1afb8b	-0.15135019
120	0x3dee736f	0.11643111
121	0xbe1492bf	-0.14509104
122	0x3d93d50a	0.07218368
123	0x3cfa70d8	0.030571386
124	0xbcda4efd	-0.026648993
125	0x3d1a80d3	0.037720513
126	0xbd2f5c3b	-0.042812567
127	0xbd4b59bc	-0.049646124
128	0xbd8ab542	-0.067728534
129	0x3e182c34	0.14860612
130	0xbd2301cd	-0.03979664
131	0x3e1dd390	0.15412736
132	0x3d546d1d	0.05186187
133	0xbdf7d379	-0.12100882
134	0x3db60128	0.08886939
135	0x3d835d81	0.06414319
136	0x3d3ceb3d	0.04612278
137	0xbd771862	-0.060325988
138	0x3e13d2ff	0.14435957
139	0x3dd0835b	0.10181304
140	0xbe4a8df8	-0.1978072
141	0x3dd67847	0.1047216
142	0xbd662d1f	-0.056195375
143	0xbb7d5486	-0.0038655116
144	0xbd7a9979	-0.06118152
145	0xbd6699dc	-0.056299075
146	0x3da377be	0.079818234
147	0xbc949e0b	-0.018141767
148	0xbe1c8705	-0.15285881
149	0x3b811ac7	0.0039399597
150	0x3e4907cb	0.19631879
151	0xbd4dbd78	-0.05022952
152	0x3c34e8b5	0.01104181
153	0x3c192594	0.009347338
154	0xbd37d4c4	-0.044880643
155	0x3d7daec4	0.061934248
156	0x3d8d6bfd	0.06905363
157	0x3c6868fd	0.014185187
158	0x3d7d44f1	0.061833326
159	0xbe20dc51	-0.15709044
160	0xbd3b8aa0	-0.0457865
161	0xbded4b08	-0.11586577
162	0x3dc32a8b	0.09529599
163	0x3e20fdf9	0.15721883
164	0x3d84ca96	0.06483953
165	0xbd7aadda	-0.061200954
166	0x3dd604f4	0.104501635
167	0xbe5d07a6	-0.21584949
168	0x3cc2a96d	0.02376243
169	0x3e3d9617	0.18514286
170	0x3e458612	0.19289425
171	0xbe83a66f	-0.25712916
172	0x3e28b6e8	0.16476023
173	0x3bf098d8	0.007342439
174	0x3db33706	0.08750729
175	0x3d66bbd8	0.056331486
176	0x3c96dfdc	0.018417291
177	0x3c90fd37	0.017698867
178	0x3d5cdeda	0.053923465
179	0x3a619c71	0.00086063804
180	0xbd87906c	-0.06619343
181	0x3dd2d153	0.10293832
182	0xbe34e93d	-0.17667098
183	0x3d09fbf8	0.03368756
184	0xbe26e8ba	-0.16299716
185	0x3e2c9e37	0.16857229
186	0x3e49f05a	0.19720593
187	0xbc880f4b	-0.016608855
188	0xbccea163	-0.02522344
189	0x3d90257a	0.07038398
190	0xbea84696	-0.32866353
191	0xbe2102bb	-0.15723698
192	0x3df1261f	0.11774849
193	0x3cbbdd52	0.022932682
194	0x3d88d6e6	0.066816136
195	0xbc5c66a2	-0.013452204
196	0xbdd542c8	-0.10413128
197	0x3e1827b3	0.14858894
198	0x3da07f4e	0.078367814
199	0xbd6adbdd	-0.057338584
200	0xbcb554ea	-0.022135217
201	0x3d27a3b6	0.04092761
202	0x3da72184	0.081606895
203	0x3a11bc61	0.00055593817
204	0xbda23dd6	-0.079219505
205	0xbcfe8797	-0.031070514
206	0x3de3dbee	0.11125933
207	0x3df8eb33	0.12154236
208	0xbc9fdb76	-0.019513827
209	0xbda9e2d3	-0.082952164
210	0xbd85be93	-0.0653049
211	0xbd786b85	-0.060649414
212	0x3dacda2f	0.08440053
213	0x3dfea852	0.12434448
214	0x3be09753	0.0068539768
215	0x3e15d4ca	0.14631954
216	0xbd53dd23	-0.051724564
217	0x3d72f190	0.059312403
218	0xbd914fc7	-0.070952944
219	0xbe0a0f94	-0.13482505
220	0x3da389ad	0.07985244
221	0xbdfb483f	-0.12269639
222	0x3d581f66	0.05276432
223	0x3d99c3d6	0.07508056
224	0xbd190fd3	-0.037368607
225	0x3d9a0526	0.07520513
226	0xbdc2cf50	-0.09512198
227	0x3d64ee0a	0.055891074
228	0xbd5aff34	-0.053466037
229	0x3d4e187e	0.050316326
230	0xbd5f1a78	-0.054468602
231	0xbdfd2ca5	-0.12362031
232	0x3df7e157	0.12103527
233	0x3d4e1241	0.050310377
234	0xbd804154	-0.0626246
235	0x3b55a17e	0.0032597478
236	0x3d737482	0.059437282
237	0x3cb5cbe1	0.022191944
238	0x3d1d2599	0.038365934
239	0x3dd7c4e3	0.105356
240	0xbe241e77	-0.16027246
241	0x3e2ff6a7	0.17183934
242	0x3ce67cb9	0.028135644
243	0x3e363aa6	0.1779581
244	0x3daab301	0.083349235
245	0x3e358ad8	0.17728746
246	0x3e5a813c	0.21338362
247	0xbda73201	-0.08163834
248	0xbd9836fb	-0.07432362
249	0xbe5d5ff6	-0.21618637
250	0xbdad4756	-0.08460872
251	0x3dbd944f	0.09256803
252	0xbde3d6ae	-0.11124931
253	0xbd921918	-0.071336925
254	0xbd90d270	-0.07071388
255	0x3e13d045	0.14434917

fc2.bias f4 [256]
0	0x3d007058	0.03135714
1	0xbbe5e2f6	-0.0070155812
2	0x3d853d1a	0.06505795
3	0xbd13365b	-0.03594051
4	0x3c1f3e06	0.009719377
5	0xbd056014	-0.03256233
6	0x3c3136d8	0.010816298
7	0xbdaeacaa	-0.08529027
8	0x3d128193	0.035768103
9	0xbc82390c	-0.015896343
10	0x3dba3903	0.09092905
11	0xbc61673d	-0.013757524
12	0x3d576ef8	0.052596062
13	0x3ca6a4a4	0.020342179
14	0x3c96a304	0.018388279
15	0x3d480ee3	0.048842322
16	0x3d41a644	0.047277704
17	0xbd00b8a5	-0.03142609
18	0x3cb5db60	0.022199333
19	0xbc41a4bf	-0.011819064
20	0x3d966d28	0.07345039
21	0x3d71665c	0.058935508
22	0x3cb33a67	0.021878434
23	0x3d49b757	0.049247112
24	0x3db48b9d	0.088156916
25	0x3c2ff7da	0.010740245
26	0x3d98c80c	0.07460031
27	0xbd9d4c9c	-0.07680628
28	0x3ceab34b	0.028649947
29	0xbd22ce34	-0.039747432
30	0xbc8f33b6	-0.017480712
31	0xbcd1947c	-0.025583498
32	0xbd53f597	-0.051747885
33	0x3b92bd3a	0.004478124
34	0xbd0a0ea8	-0.033705384
35	0xbb887ae7	-0.0041650417
36	0xbd96386e	-0.07334982
37	0x3c343426	0.010998761
38	0xbb8eb15a	-0.004354638
39	0x3c827973	0.015927052
40	0xbd0506bb	-0.03247712
41	0x3bcbf731	0.006224536
42	0xbd057254	-0.032579735
43	0xbce5a660	-0.028033435
44	0x3c707d78	0.014678352
45	0x3d818202	0.06323625
46	0x3d872697	0.06599157
47	0x3d44ce89	0.04804853
48	0xbcb4c978	-0.022068724
49	0x3d6c25d2	0.057653256
50	0xbd39f48f	-0.045399245
51	0xbd1e102e	-0.03858965
52	0x3cdb1033	0.026741123
53	0x3d85fd9e	0.06542514
54	0x3d0fbde4	0.035093203
55	0x3d93e071	0.07220543
56	0xbd184971	-0.037179414
57	0xbca3168d	-0.019908214
58	0x3c1a9b63	0.009436461
59	0x3d070c66	0.03297081
60	0x3c823c8c	0.015898012
61	0xbd26225f	-0.040560123
62	0xbd044c16	-0.032299124
63	0x3b76cf37	0.003766013
64	0x3d43eebe	0.047835104
65	0xbd6b7f1b	-0.057494264
66	0x3d8f9b3f	0.07012033
67	0xbc0d4a2c	-0.008623641
68	0x3d66f217	0.05638322
69	0x3ce21497	0.027597709
70	0x3d0d10cb	0.034439843
71	0x3c8d25ce	0.01722994
72	0x3d30f1aa	0.04319922
73	0x3d21227e	0.039339535
74	0x3d84a983	0.06477644
75	0xbd7594c2	-0.05995632
76	0xbd64b713	-0.055838656
77	0xba71f1b4	-0.0009229437
78	0xbc59b08b	-0.01328672
79	0x3cdc67c9	0.026904957
80	0xbd224bd0	-0.03962308
81	0x3c22fc45	0.009947841
82	0xbbaf41f2	-0.0053484375
83	0xbc555a9a	-0.013022089
84	0x3d71fff0	0.05908197
85	0xbca84486	-0.020540487
86	0x3d38528b	0.045000594
87	0x3d52160e	0.051290564
88	0x3c087731	0.008329199
89	0xbd4a186f	-0.049339708
90	0x3d115025	0.035476822
91	0x3d132f4e	0.035933785
92	0xbd404a66	-0.046945952
93	0x3d9ee0b1	0.077577
94	0xbc7d2529	-0.015450754
95	0x3d5d69f5	0.054056127
96	0xbd1062c6	-0.035250448
97	0x3d1108b8	0.035408705
98	0x3d387a60	0.04503858
99	0x3d545b13	0.051844668
100	0x3a232e0b	0.00062248175
101	0xbce5a6a3	-0.02803356
102	0xbbe49f63	-0.006977008
103	0x3d94d140	0.07266474
104	0xbd28ce97	-0.041212644
105	0x3b4eb43c	0.0031540534
106	0x3c688d0a	0.014193783
107	0x3d009e2b	0.03140084
108	0xbd48e5df	-0.049047347
109	0x3ce73f79	0.028228508
110	0x3b9f2233	0.004856372
111	0x3bcf6f78	0.006330427
112	0x3d2cf6a6	0.04222741
113	0x3c68d509	0.014210948
114	0x3d66fba6	0.056392334
115	0x3d4a340d	0.049366046
116	0xbc15996e	-0.009130819
117	0x3d880a41	0.06642581
118	0xbd1d2b15	-0.038371164
119	0xbd7bf57a	-0.0615134
120	0xbbdb4be3	-0.006692396
121	0xbcf7cb3c	-0.030248277
122	0x3dc620d4	0.0967423
123	0xbba16762	-0.0049256543
124	0xbc7b3b5a	-0.015333975
125	0x3ca6456a	0.020296771
126	0x3d3388ef	0.043831762
127	0x3d9ed638	0.07755703
128	0x3c8764a9	0.01652749
129	0xbd58c6d9	-0.05292401
130	0x3d846300	0.06464195
131	0x3c5bc983	0.013414743
132	0xbcdc24e4	-0.02687306
133	0x3d892885	0.066971816
134	0x3d392a66	0.04520645
135	0x3bdb5571	0.006693535
136	0xbd33fc96	-0.043942057
137	0xbc501df6	-0.012702456
138	0xbbf4d544	-0.0074717123
139	0x3d07a776	0.033118688
140	0x3d731630	0.05934733
141	0x3ca809b7	0.020512445
142	0x3d2d50b0	0.042313278
143	0x3c3a4b1e	0.011370448
144	0xbc3145e0	-0.010819882
145	0x3c36ae1c	0.011149909
146	0xbd5f3d39	-0.054501746
147	0x3d65b304	0.056078926
148	0x3d450795	0.048102934
149	0x3c84d1d2	0.016213331
150	0x3d4ab9c8	0.04949358
151	0xbcd409dd	-0.02588361
152	0xbce1fbf3	-0.027585959
153	0x3d8af714	0.06785408
154	0xbcc66b90	-0.024221212
155	0xbd7504e5	-0.05981912
156	0x3d88d2d3	0.066808365
157	0x3d583eb8	0.05279419
158	0xbdc63569	-0.09678156
159	0xbc985095	-0.018593112
160	0x3d6626d3	0.05618937
161	0x3c3af1b9	0.01141017
162	0x3d1057d9	0.035240028
163	0xbcf3c3da	-0.029756475
164	0xbcc19de2	-0.023634855
165	0xbcba7ba5	-0.022764036
166	0x3d890952	0.06691231
167	0x3d534089	0.051575217
168	0x3d632ce7	0.055462744
169	0x3c84518a	0.016152162
170	0x3d630b75	0.05543085
171	0x3c03986a	0.008031944
172	0xbcec2f9f	-0.028831301
173	0x3d4c2def	0.049848493
174	0x3d610dda	0.05494485
175	0xbc1e6da0	-0.009669691
176	0x3d03b8eb	0.032158773
177	0xbdcdb3d5	-0.10044066
178	0xbd7be0e5	-0.061493773
179	0xbaadbb4d	-0.0013254673
180	0xbd41d7e3	-0.047325026
181	0xbd5f1285	-0.05446102
182	0x3da26746	0.07929854
183	0x3cb13ede	0.021636423
184	0x3c099707	0.008397824
185	0xbd4d3392	-0.05009801
186	0x3d8fe2e5	0.070256986
187	0xb9cd5e76	-0.00039171026
188	0x3d6ccbf9	0.05781171
189	0xbd7047bb	-0.058662158
190	0xbd2a8a55	-0.04163583
191	0xbcb5c56d	-0.022188867
192	0xbc34070c	-0.010988008
193	0x3c81e8a7	0.015858008
194	0x3d8532d2	0.06503834
195	0xbc87dc15	-0.016584435
196	0xbca478e2	-0.020077173
197	0xbd41f37d	-0.04735135
198	0xbca997eb	-0.020702323
199	0x3c2b3f1d	0.010452059
200	0xbc8da695	-0.017291347
201	0xbd31bde0	-0.04339397
202	0x3ccebe35	0.025237182
203	0x3d4589d4	0.048227146
204	0xbd137ef1	-0.036009733
205	0x3d8128b0	0.06306589
206	0x3c0b7306	0.00851131
207	0xbcc30fb8	-0.023811206
208	0xbcc548d4	-0.024082579
209	0xbc1ff65e	-0.009763328
210	0x3d263561	0.04057825
211	0x3de831e8	0.11337644
212	0x3d86290b	0.06550797
213	0xbc8b74a9	-0.017023401
214	0xbda03c7c	-0.078240365
215	0xbc8dc5da	-0.017306257
216	0xbd3f6521	-0.046727303
217	0x3da5ea00	0.081012726
218	0x3c38a9cf	0.011270954
219	0x3d32c85c	0.04364811
220	0x3d2a6e43	0.04160906
221	0xbd5eb32f	-0.0543701
222	0xbd278083	-0.040894043
223	0xbc33e2eb	-0.010979394
224	0xbd681bca	-0.056667127
225	0x3d08bdf0	0.033384264
226	0xbd585882	-0.052818783
227	0x3d9ba0cd	0.0759903
228	0xbd813943	-0.0630975
229	0x3d754177	0.059876885
230	0xbcb1ee28	-0.021720007
231	0x3c9bbb8c	0.019010328
232	0x3d353e86	0.04424908
233	0xbd970364	-0.073736936
234	0x3d44d844	0.04805781
235	0x3beaf333	0.007170105
236	0x3cfdcebf	0.030982373
237	0xbd22c9b5	-0.039743144
238	0x3c67510e	0.014118446
239	0x3bb82198	0.005619239
240	0x3d130466	0.035892867
241	0x3c8b1fd3	0.016982948
242	0xbcabfefa	-0.020995606
243	0xbd464a31	-0.0484106
244	0x3d7d9557	0.06191
245	0xbcb4d326	-0.02207334
246	0x3d83b4e1	0.06430984
247	0xbd381349	-0.044940267
248	0x3ca12f90	0.019676
249	0x3da03166	0.07821922
250	0x3dcc3087	0.09970193
251	0x3cf0a3c0	0.029374957
252	0x3ca01fc4	0.019546397
253	0xbd2c1e48	-0.042021066
254	0x3d8913d3	0.06693234
255	0x3d9ac276	0.07556622

fc3.weight f4 [4, 256]
0	0xbea51cb7	-0.3224847
1	0x3db13571	0.08652771
2	0x3e1ededd	0.15514703
3	0xbcf7ec29	-0.030263977
4	0x3e818938	0.25300002
5	0x3db01560	0.08597827
6	0xbcc3d867	-0.0239069
7	0xbe2b6247	-0.16736709
8	0x3dc2f111	0.09518636
9	0x3c96a1b2	0.01838765
10	0x3dc58e9d	0.09646342
11	0x3cf4d36a	0.029885966
12	0x3d2949e1	0.041330222
13	0xbe2cd7b3	-0.16879158
14	0xbda1a0c6	-0.07891993
15	0xbe7bcdc2	-0.24590209
16	0xbd96ed16	-0.07369439
17	0xbe34693c	-0.17618269
18	0xbbe1b205	-0.0068876767
19	0x3e09207e	0.13391301
20	0x3e212cfa	0.15739813
21	0x3dcd30be	0.100190625
22	0x3e302fd5	0.17205746
23	0x3c99a7ac	0.01875671
24	0x3dbec267	0.09314423
25	0x3da0f4f2	0.078592196
26	0x3dc25ce7	0.09490376
27	0x3cca9de1	0.024733486
28	0xbdbae72f	-0.09126126
29	0x3e43517a	0.1907405
30	0x3ce06241	0.027390601
31	0xbd84a6dc	-0.064771384
32	0xbe9e9a55	-0.3097712
33	0xbdb0c60e	-0.08631526
34	0x3d8afcd6	0.06786506
35	0x3d222e21	0.039594773
36	0x3df68759	0.12037534
37	0x3dd88076	0.10571377
38	0xbd7c181e	-0.061546437
39	0xbd0d3de5	-0.034482855
40	0x3d009e83	0.03140117
41	0xbd144b6d	-0.036204744
42	0x3dcdb1f1	0.10043705
43	0xbdbe884c	-0.0930334
44	0x3d1ac44e	0.037784867
45	0x3d236e30	0.039900005
46	0x3dbbd4d2	0.09171452
47	0x3ce52bb9	0.02797495
48	0x3da8aaec	0.08235726
49	0x3d8b2dd6	0.06795852
50	0xbe86533a	-0.26235372
51	0x3e04de3f	0.12975405
52	0xbdc5dd94	-0.09661403
53	0xbeb1363b	-0.34611687
54	0x3d5b65b4	0.05356379
55	0x3dcd8aa9	0.10036213
56	0x3e29eeb2	0.16594961
57	0x3cd088d2	0.025455866
58	0xbd1ab1e6	-0.037767313
59	0x3dc49b31	0.09599913
60	0x3c637ca4	0.013884697
61	0x3debc39e	0.115119204
62	0x3e8e65ca	0.27812034
63	0xbdbaf130	-0.09128034
64	0xbdbd110e	-0.092317685
65	0xbc976c31	-0.018484207
66	0x3d31b014	0.04338081
67	0xbe202489	-0.15638937
68	0x3d11b236	0.035570346
69	0xbde9ece3	-0.11422136
70	0xbcd1060b	-0.025515577
71	0xbeb18a16	-0.34675664
72	0xbd55e0d3	-0.052216362
73	0xbe6fc621	-0.23415424
74	0x3db46264	0.08807829
75	0xbe43d542	-0.1912432
76	0xbe0c3adb	-0.13694327
77	0xbe6437af	-0.22286867
78	0x3d80f03a	0.062958196
79	0xbe9e757a	-0.30949003
80	0x3e296a9e	0.16544577
81	0xbe2b1e06	-0.16710672
82	0xbd485ab6	-0.048914634
83	0x3e5d032c	0.21583241
84	0x3d337112	0.043809004
85	0xbdeeeece	-0.11666642
86	0xbe89e68e	-0.26933712
87	0xbe90f0cd	-0.28308716
88	0xbc9e39e3	-0.019314712
89	0xbe9f43ce	-0.31106418
90	0x3cabd336	0.020974737
91	0xbda1520b	-0.078769766
92	0xbe5db4eb	-0.21651046
93	0x3ddbae4d	0.107266046
94	0xbd17f06c	-0.03709452
95	0x3cd8275b	0.026385954
96	0xbdfac23a	-0.12244077
97	0xbeb47a64	-0.35249627
98	0x3d6469a7	0.05576482
99	0xbdb344b7	-0.08753341
100	0xbe254e85	-0.16143234
101	0xbe8fb5a5	-0.2806827
102	0xbd5046d0	-0.050848782
103	0xbdab39a0	-0.083606005
104	0xbe9fcbb3	-0.31210098
105	0x3e05879c	0.13040012
106	0xbe13160d	-0.1436388
107	0xbf13fa69	-0.5780397
108	0xbebe1c1e	-0.37130827
109	0xbe7ce80d	-0.24697895
110	0xbd1ca55f	-0.038243648
111	0xbeada0dc	-0.33911788
112	0xbc27cb45	-0.010241334
113	0xbd7a6e6b	-0.06114046
114	0x3da2e2b8	0.079533994
115	0x3d8505ee	0.064952716
116	0x3cfd72a9	0.030938463
117	0x3d8e8337	0.06958621
118	0x3db0b793	0.08628764
119	0xbebae84b	-0.3650535
120	0xbd6b3f59	-0.05743346
121	0xbb9adf8c	-0.004726356
122	0x3de6e45d	0.112740256
123	0xbd8c88f2	-0.06862058
124	0xbe8bae3d	-0.2728137
125	0x3dfbef95	0.12301556
126	0x3d5b10f0	0.05348295
127	0x3da8a66a	0.08234866
128	0xbdd0f883	-0.1020365
129	0xbb635a71	-0.0034691358
130	0x3e1b2514	0.15150863
131	0x3ca9e212	0.020737682
132	0x3ebc4135	0.367685
133	0xbe9a18ef	-0.30097148
134	0xbe2388ed	-0.15970202
135	0xbe0d482a	-0.1379706
136	0x3e1d52cc	0.15363616
137	0xbd08f005	-0.033432025
138	0xbdadf3e3	-0.08493783
139	0xbe337759	-0.17525996
140	0x3d5f8e12	0.05457885
141	0x3de33dd0	0.11095774
142	0xbcb99852	-0.02265564
143	0x3cec4ff0	0.02884671
144	0x3e495fe6	0.19665489
145	0xbe00f3b5	-0.12592967
146	0xbe3ddf46	-0.18542203
147	0x3d5f31b6	0.054490767
148	0x3e9d28a0	0.30695057
149	0x3da500e5	0.08056811
150	0x3dc42bc0	0.09578657
151	0x3de49a28	0.111622155
152	0x3d86b428	0.06577331
153	0xbe1692d2	-0.14704445
154	0xbd0ec4c5	-0.034855623
155	0x3dfa5022	0.12222315
156	0x3da05163	0.07828023
157	0x3e4ea348	0.20179474
158	0xbe0c9953	-0.13730364
159	0xbeba04c8	-0.36331773
160	0xbcd4b93e	-0.025967237
161	0x3d375681	0.04476023
162	0xbdc83f87	-0.09777742
163	0x3cff7b8f	0.031186847
164	0x3adce821	0.0016853848
165	0x3c2c62a0	0.010521561
166	0x3d6a1e25	0.057157654
167	0xbe864745	-0.2622625
168	0xbdfbf506	-0.12302594
169	0x3ce25582	0.027628664
170	0x3d595b33	0.05306549
171	0xbe4e75f6	-0.20162186
172	0x3d39daff	0.045374867
173	0xbb7eab5a	-0.0038859458
174	0xbd9d4e48	-0.076809466
175	0x3d6d1723	0.057883393
176	0xbcc7fc4b	-0.024412295
177	0xbe87da3d	-0.2653369
178	0xbe6f0fec	-0.23345917
179	0x3d5b4ef2	0.053542085
180	0xbbc51bb8	-0.006015267
181	0x3e28d200	0.16486359
182	0x3d29804a	0.04138211
183	0x3d6bc73b	0.057563048
184	0xbd623f52	-0.05523617
185	0x3e28a081	0.16467477
186	0xbcd709b4	-0.026249744
187	0x3d8e39e8	0.069446385
188	0x3d455a7f	0.048182007
189	0x3d32d445	0.043659467
190	0xbe49c9e0	-0.19705915
191	0xbe0e8c13	-0.13920622
192	0x3df3f820	0.119125605
193	0x3db37bad	0.08763824
194	0x3da26dc6	0.07931094
195	0x3caa5280	0.020791292
196	0xbc37e984	-0.011225108
197	0x3e93db0f	0.28878066
198	0x3cc29247	0.023751391
199	0x3e0c2b53	0.13688402
200	0x3d8506a6	0.06495409
201	0xbd8622a0	-0.06549573
202	0xbec6a940	-0.38801003
203	0xbb599574	-0.0033200653
204	0xbd997d48	-0.074945986
205	0xbc903ae6	-0.01760621
206	0xbdb59ff3	-0.088683985
207	0xbe100862	-0.14065698
208	0x3d505aa7	0.050867703
209	0xbdbc56f6	-0.09196274
210	0xbd0a5422	-0.03377164
211	0xbde090a4	-0.10965088
212	0xbcb79995	-0.0224121
213	0xbe913854	-0.28363287
214	0x3c085f0f	0.008323445
215	0xba3e0dc5	-0.00072499766
216	0x3dc45702	0.09586908
217	0xbdc643cf	-0.09680902
218	0x3de44ba1	0.111472376
219	0x3d8301ce	0.063968286
220	0x3d2eb521	0.042653207
221	0x3dc6e044	0.09710744
222	0x3dba202d	0.09088168
223	0xbc282c19	-0.01026442
224	0xbe229f1d	-0.1588101
225	0xbe8b7fce	-0.27245945
226	0x3da928cc	0.082597345
227	0x3d4a2867	0.049354937
228	0x3e058b8d	0.13041516
229	0x3e2d26af	0.16909288
230	0xbe7163ad	-0.2357318
231	0x3d07ca31	0.03315181
232	0x3d8bb8b9	0.068223424
233	0xbdb422df	-0.08795714
234	0xbde4f791	-0.11180032
235	0x3dd01e04	0.10161975
236	0x3db925d5	0.09040419
237	0x3e370b1f	0.17875336
238	0xbc0f8a91	-0.008761064
239	0xbd9769af	-0.073932044
240	0x3d387a11	0.045038287
241	0x3d3f9d7b	0.046781044
242	0xbdb40ede	-0.08791898
243	0x3dd6cced	0.10488305
244	0xbd9dc60f	-0.07703792
245	0x3e1fac58	0.15593088
246	0xbdb1c2d4	-0.08679739
247	0xbe2748e5	-0.16336401
248	0xbe9d2e5d	-0.30699435
249	0xbcb78164	-0.022400565
250	0x3d8f3ce5	0.069940366
251	0x3d6be3ff	0.05759048
252	0x3dd3ce3a	0.10342069
253	0x3d3ebd42	0.04656721
254	0x3e106dc6	0.14104375
255	0xbd3b43b2	-0.045718856

fc3.bias f4 [4]
0	0x3d75611c	0.059907064
1	0xbd052cae	-0.032513313
2	0xbc7d8288	-0.015473016
3	0x3dba1eda	0.09087916
